{"format": "layers-model", "generatedBy": "keras v3.10.0", "convertedBy": "TensorFlow.js Converter v4.22.0", "modelTopology": {"keras_version": "3.10.0", "model_config": {"class_name": "Sequential", "config": {"name": "sequential", "trainable": true, "dtype": {"class_name": "DTypePolicy", "config": {"name": "float32"}, "shared_object_id": 140251169567616}, "layers": [{"class_name": "InputLayer", "config": {"batch_shape": [null, 224, 224, 3], "dtype": "float32", "sparse": false, "ragged": false, "name": "input_layer_1"}}, {"class_name": "RandomFlip", "config": {"name": "random_flip", "trainable": true, "dtype": {"class_name": "DTypePolicy", "config": {"name": "float32"}}, "seed": null, "mode": "horizontal", "data_format": "channels_last"}, "build_config": {"input_shape": [null, 224, 224, 3]}}, {"class_name": "RandomRotation", "config": {"name": "random_rotation", "trainable": true, "dtype": {"class_name": "DTypePolicy", "config": {"name": "float32"}, "shared_object_id": 140251169567616}, "factor": [-0.1, 0.1], "data_format": "channels_last", "fill_mode": "reflect", "fill_value": 0.0, "interpolation": "bilinear", "seed": null}, "build_config": {"input_shape": [null, 224, 224, 3]}}, {"class_name": "RandomZoom", "config": {"name": "random_zoom", "trainable": true, "dtype": {"class_name": "DTypePolicy", "config": {"name": "float32"}, "shared_object_id": 140251169567616}, "height_factor": 0.1, "width_factor": null, "fill_mode": "reflect", "interpolation": "bilinear", "seed": null, "fill_value": 0.0, "data_format": "channels_last"}, "build_config": {"input_shape": [null, 224, 224, 3]}}, {"class_name": "Functional", "config": {"name": "MobileNetV3Large", "trainable": false, "layers": [{"class_name": "InputLayer", "config": {"batch_shape": [null, 224, 224, 3], "dtype": "float32", "sparse": false, "ragged": false, "name": "input_layer"}, "name": "input_layer", "inbound_nodes": []}, {"class_name": "Rescaling", "config": {"name": "rescaling", "trainable": false, "dtype": {"class_name": "DTypePolicy", "config": {"name": "float32"}, "shared_object_id": 140251169567616}, "scale": 0.00784313725490196, "offset": -1.0}, "build_config": {"input_shape": [null, 224, 224, 3]}, "name": "rescaling", "inbound_nodes": [{"args": [{"class_name": "__keras_tensor__", "config": {"shape": [null, 224, 224, 3], "dtype": "float32", "keras_history": ["input_layer", 0, 0]}}], "kwargs": {}}]}, {"class_name": "Conv2D", "config": {"name": "conv", "trainable": false, "dtype": {"class_name": "DTypePolicy", "config": {"name": "float32"}, "shared_object_id": 140251169567616}, "filters": 16, "kernel_size": [3, 3], "strides": [2, 2], "padding": "same", "data_format": "channels_last", "dilation_rate": [1, 1], "groups": 1, "activation": "linear", "use_bias": false, "kernel_initializer": {"class_name": "GlorotUniform", "config": {"seed": null}}, "bias_initializer": {"class_name": "Zeros", "config": {}}, "kernel_regularizer": null, "bias_regularizer": null, "activity_regularizer": null, "kernel_constraint": null, "bias_constraint": null}, "build_config": {"input_shape": [null, 224, 224, 3]}, "name": "conv", "inbound_nodes": [{"args": [{"class_name": "__keras_tensor__", "config": {"shape": [null, 224, 224, 3], "dtype": "float32", "keras_history": ["rescaling", 0, 0]}}], "kwargs": {}}]}, {"class_name": "BatchNormalization", "config": {"name": "conv_bn", "trainable": false, "dtype": {"class_name": "DTypePolicy", "config": {"name": "float32"}, "shared_object_id": 140251169567616}, "axis": -1, "momentum": 0.999, "epsilon": 0.001, "center": true, "scale": true, "beta_initializer": {"class_name": "Zeros", "config": {}}, "gamma_initializer": {"class_name": "Ones", "config": {}}, "moving_mean_initializer": {"class_name": "Zeros", "config": {}}, "moving_variance_initializer": {"class_name": "Ones", "config": {}}, "beta_regularizer": null, "gamma_regularizer": null, "beta_constraint": null, "gamma_constraint": null, "synchronized": false}, "build_config": {"input_shape": [null, 112, 112, 16]}, "name": "conv_bn", "inbound_nodes": [{"args": [{"class_name": "__keras_tensor__", "config": {"shape": [null, 112, 112, 16], "dtype": "float32", "keras_history": ["conv", 0, 0]}}], "kwargs": {"mask": null}}]}, {"class_name": "Activation", "config": {"name": "activation", "trainable": false, "dtype": {"class_name": "DTypePolicy", "config": {"name": "float32"}, "shared_object_id": 140251169567616}, "activation": "hard_silu"}, "name": "activation", "inbound_nodes": [{"args": [{"class_name": "__keras_tensor__", "config": {"shape": [null, 112, 112, 16], "dtype": "float32", "keras_history": ["conv_bn", 0, 0]}}], "kwargs": {}}]}, {"class_name": "DepthwiseConv2D", "config": {"name": "expanded_conv_depthwise", "trainable": false, "dtype": {"class_name": "DTypePolicy", "config": {"name": "float32"}, "shared_object_id": 140251169567616}, "depth_multiplier": 1, "kernel_size": [3, 3], "strides": [1, 1], "padding": "same", "data_format": "channels_last", "dilation_rate": [1, 1], "activation": "linear", "use_bias": false, "depthwise_initializer": {"class_name": "GlorotUniform", "config": {"seed": null}}, "bias_initializer": {"class_name": "Zeros", "config": {}}, "depthwise_regularizer": null, "bias_regularizer": null, "activity_regularizer": null, "depthwise_constraint": null, "bias_constraint": null}, "build_config": {"input_shape": [null, 112, 112, 16]}, "name": "expanded_conv_depthwise", "inbound_nodes": [{"args": [{"class_name": "__keras_tensor__", "config": {"shape": [null, 112, 112, 16], "dtype": "float32", "keras_history": ["activation", 0, 0]}}], "kwargs": {}}]}, {"class_name": "BatchNormalization", "config": {"name": "expanded_conv_depthwise_bn", "trainable": false, "dtype": {"class_name": "DTypePolicy", "config": {"name": "float32"}, "shared_object_id": 140251169567616}, "axis": -1, "momentum": 0.999, "epsilon": 0.001, "center": true, "scale": true, "beta_initializer": {"class_name": "Zeros", "config": {}}, "gamma_initializer": {"class_name": "Ones", "config": {}}, "moving_mean_initializer": {"class_name": "Zeros", "config": {}}, "moving_variance_initializer": {"class_name": "Ones", "config": {}}, "beta_regularizer": null, "gamma_regularizer": null, "beta_constraint": null, "gamma_constraint": null, "synchronized": false}, "build_config": {"input_shape": [null, 112, 112, 16]}, "name": "expanded_conv_depthwise_bn", "inbound_nodes": [{"args": [{"class_name": "__keras_tensor__", "config": {"shape": [null, 112, 112, 16], "dtype": "float32", "keras_history": ["expanded_conv_depthwise", 0, 0]}}], "kwargs": {"mask": null}}]}, {"class_name": "ReLU", "config": {"name": "re_lu", "trainable": false, "dtype": {"class_name": "DTypePolicy", "config": {"name": "float32"}, "shared_object_id": 140251169567616}, "max_value": null, "negative_slope": 0.0, "threshold": 0.0}, "name": "re_lu", "inbound_nodes": [{"args": [{"class_name": "__keras_tensor__", "config": {"shape": [null, 112, 112, 16], "dtype": "float32", "keras_history": ["expanded_conv_depthwise_bn", 0, 0]}}], "kwargs": {}}]}, {"class_name": "Conv2D", "config": {"name": "expanded_conv_project", "trainable": false, "dtype": {"class_name": "DTypePolicy", "config": {"name": "float32"}, "shared_object_id": 140251169567616}, "filters": 16, "kernel_size": [1, 1], "strides": [1, 1], "padding": "same", "data_format": "channels_last", "dilation_rate": [1, 1], "groups": 1, "activation": "linear", "use_bias": false, "kernel_initializer": {"class_name": "GlorotUniform", "config": {"seed": null}}, "bias_initializer": {"class_name": "Zeros", "config": {}}, "kernel_regularizer": null, "bias_regularizer": null, "activity_regularizer": null, "kernel_constraint": null, "bias_constraint": null}, "build_config": {"input_shape": [null, 112, 112, 16]}, "name": "expanded_conv_project", "inbound_nodes": [{"args": [{"class_name": "__keras_tensor__", "config": {"shape": [null, 112, 112, 16], "dtype": "float32", "keras_history": ["re_lu", 0, 0]}}], "kwargs": {}}]}, {"class_name": "BatchNormalization", "config": {"name": "expanded_conv_project_bn", "trainable": false, "dtype": {"class_name": "DTypePolicy", "config": {"name": "float32"}, "shared_object_id": 140251169567616}, "axis": -1, "momentum": 0.999, "epsilon": 0.001, "center": true, "scale": true, "beta_initializer": {"class_name": "Zeros", "config": {}}, "gamma_initializer": {"class_name": "Ones", "config": {}}, "moving_mean_initializer": {"class_name": "Zeros", "config": {}}, "moving_variance_initializer": {"class_name": "Ones", "config": {}}, "beta_regularizer": null, "gamma_regularizer": null, "beta_constraint": null, "gamma_constraint": null, "synchronized": false}, "build_config": {"input_shape": [null, 112, 112, 16]}, "name": "expanded_conv_project_bn", "inbound_nodes": [{"args": [{"class_name": "__keras_tensor__", "config": {"shape": [null, 112, 112, 16], "dtype": "float32", "keras_history": ["expanded_conv_project", 0, 0]}}], "kwargs": {"mask": null}}]}, {"class_name": "Add", "config": {"name": "expanded_conv_add", "trainable": false, "dtype": {"class_name": "DTypePolicy", "config": {"name": "float32"}, "shared_object_id": 140251169567616}}, "build_config": {"input_shape": [[null, 112, 112, 16], [null, 112, 112, 16]]}, "name": "expanded_conv_add", "inbound_nodes": [{"args": [[{"class_name": "__keras_tensor__", "config": {"shape": [null, 112, 112, 16], "dtype": "float32", "keras_history": ["activation", 0, 0]}}, {"class_name": "__keras_tensor__", "config": {"shape": [null, 112, 112, 16], "dtype": "float32", "keras_history": ["expanded_conv_project_bn", 0, 0]}}]], "kwargs": {}}]}, {"class_name": "Conv2D", "config": {"name": "expanded_conv_1_expand", "trainable": false, "dtype": {"class_name": "DTypePolicy", "config": {"name": "float32"}, "shared_object_id": 140251169567616}, "filters": 64, "kernel_size": [1, 1], "strides": [1, 1], "padding": "same", "data_format": "channels_last", "dilation_rate": [1, 1], "groups": 1, "activation": "linear", "use_bias": false, "kernel_initializer": {"class_name": "GlorotUniform", "config": {"seed": null}}, "bias_initializer": {"class_name": "Zeros", "config": {}}, "kernel_regularizer": null, "bias_regularizer": null, "activity_regularizer": null, "kernel_constraint": null, "bias_constraint": null}, "build_config": {"input_shape": [null, 112, 112, 16]}, "name": "expanded_conv_1_expand", "inbound_nodes": [{"args": [{"class_name": "__keras_tensor__", "config": {"shape": [null, 112, 112, 16], "dtype": "float32", "keras_history": ["expanded_conv_add", 0, 0]}}], "kwargs": {}}]}, {"class_name": "BatchNormalization", "config": {"name": "expanded_conv_1_expand_bn", "trainable": false, "dtype": {"class_name": "DTypePolicy", "config": {"name": "float32"}, "shared_object_id": 140251169567616}, "axis": -1, "momentum": 0.999, "epsilon": 0.001, "center": true, "scale": true, "beta_initializer": {"class_name": "Zeros", "config": {}}, "gamma_initializer": {"class_name": "Ones", "config": {}}, "moving_mean_initializer": {"class_name": "Zeros", "config": {}}, "moving_variance_initializer": {"class_name": "Ones", "config": {}}, "beta_regularizer": null, "gamma_regularizer": null, "beta_constraint": null, "gamma_constraint": null, "synchronized": false}, "build_config": {"input_shape": [null, 112, 112, 64]}, "name": "expanded_conv_1_expand_bn", "inbound_nodes": [{"args": [{"class_name": "__keras_tensor__", "config": {"shape": [null, 112, 112, 64], "dtype": "float32", "keras_history": ["expanded_conv_1_expand", 0, 0]}}], "kwargs": {"mask": null}}]}, {"class_name": "ReLU", "config": {"name": "re_lu_1", "trainable": false, "dtype": {"class_name": "DTypePolicy", "config": {"name": "float32"}, "shared_object_id": 140251169567616}, "max_value": null, "negative_slope": 0.0, "threshold": 0.0}, "name": "re_lu_1", "inbound_nodes": [{"args": [{"class_name": "__keras_tensor__", "config": {"shape": [null, 112, 112, 64], "dtype": "float32", "keras_history": ["expanded_conv_1_expand_bn", 0, 0]}}], "kwargs": {}}]}, {"class_name": "ZeroPadding2D", "config": {"name": "expanded_conv_1_depthwise_pad", "trainable": false, "dtype": {"class_name": "DTypePolicy", "config": {"name": "float32"}, "shared_object_id": 140251169567616}, "padding": [[0, 1], [0, 1]], "data_format": "channels_last"}, "build_config": {"input_shape": [null, 112, 112, 64]}, "name": "expanded_conv_1_depthwise_pad", "inbound_nodes": [{"args": [{"class_name": "__keras_tensor__", "config": {"shape": [null, 112, 112, 64], "dtype": "float32", "keras_history": ["re_lu_1", 0, 0]}}], "kwargs": {}}]}, {"class_name": "DepthwiseConv2D", "config": {"name": "expanded_conv_1_depthwise", "trainable": false, "dtype": {"class_name": "DTypePolicy", "config": {"name": "float32"}, "shared_object_id": 140251169567616}, "depth_multiplier": 1, "kernel_size": [3, 3], "strides": [2, 2], "padding": "valid", "data_format": "channels_last", "dilation_rate": [1, 1], "activation": "linear", "use_bias": false, "depthwise_initializer": {"class_name": "GlorotUniform", "config": {"seed": null}}, "bias_initializer": {"class_name": "Zeros", "config": {}}, "depthwise_regularizer": null, "bias_regularizer": null, "activity_regularizer": null, "depthwise_constraint": null, "bias_constraint": null}, "build_config": {"input_shape": [null, 113, 113, 64]}, "name": "expanded_conv_1_depthwise", "inbound_nodes": [{"args": [{"class_name": "__keras_tensor__", "config": {"shape": [null, 113, 113, 64], "dtype": "float32", "keras_history": ["expanded_conv_1_depthwise_pad", 0, 0]}}], "kwargs": {}}]}, {"class_name": "BatchNormalization", "config": {"name": "expanded_conv_1_depthwise_bn", "trainable": false, "dtype": {"class_name": "DTypePolicy", "config": {"name": "float32"}, "shared_object_id": 140251169567616}, "axis": -1, "momentum": 0.999, "epsilon": 0.001, "center": true, "scale": true, "beta_initializer": {"class_name": "Zeros", "config": {}}, "gamma_initializer": {"class_name": "Ones", "config": {}}, "moving_mean_initializer": {"class_name": "Zeros", "config": {}}, "moving_variance_initializer": {"class_name": "Ones", "config": {}}, "beta_regularizer": null, "gamma_regularizer": null, "beta_constraint": null, "gamma_constraint": null, "synchronized": false}, "build_config": {"input_shape": [null, 56, 56, 64]}, "name": "expanded_conv_1_depthwise_bn", "inbound_nodes": [{"args": [{"class_name": "__keras_tensor__", "config": {"shape": [null, 56, 56, 64], "dtype": "float32", "keras_history": ["expanded_conv_1_depthwise", 0, 0]}}], "kwargs": {"mask": null}}]}, {"class_name": "ReLU", "config": {"name": "re_lu_2", "trainable": false, "dtype": {"class_name": "DTypePolicy", "config": {"name": "float32"}, "shared_object_id": 140251169567616}, "max_value": null, "negative_slope": 0.0, "threshold": 0.0}, "name": "re_lu_2", "inbound_nodes": [{"args": [{"class_name": "__keras_tensor__", "config": {"shape": [null, 56, 56, 64], "dtype": "float32", "keras_history": ["expanded_conv_1_depthwise_bn", 0, 0]}}], "kwargs": {}}]}, {"class_name": "Conv2D", "config": {"name": "expanded_conv_1_project", "trainable": false, "dtype": {"class_name": "DTypePolicy", "config": {"name": "float32"}, "shared_object_id": 140251169567616}, "filters": 24, "kernel_size": [1, 1], "strides": [1, 1], "padding": "same", "data_format": "channels_last", "dilation_rate": [1, 1], "groups": 1, "activation": "linear", "use_bias": false, "kernel_initializer": {"class_name": "GlorotUniform", "config": {"seed": null}}, "bias_initializer": {"class_name": "Zeros", "config": {}}, "kernel_regularizer": null, "bias_regularizer": null, "activity_regularizer": null, "kernel_constraint": null, "bias_constraint": null}, "build_config": {"input_shape": [null, 56, 56, 64]}, "name": "expanded_conv_1_project", "inbound_nodes": [{"args": [{"class_name": "__keras_tensor__", "config": {"shape": [null, 56, 56, 64], "dtype": "float32", "keras_history": ["re_lu_2", 0, 0]}}], "kwargs": {}}]}, {"class_name": "BatchNormalization", "config": {"name": "expanded_conv_1_project_bn", "trainable": false, "dtype": {"class_name": "DTypePolicy", "config": {"name": "float32"}, "shared_object_id": 140251169567616}, "axis": -1, "momentum": 0.999, "epsilon": 0.001, "center": true, "scale": true, "beta_initializer": {"class_name": "Zeros", "config": {}}, "gamma_initializer": {"class_name": "Ones", "config": {}}, "moving_mean_initializer": {"class_name": "Zeros", "config": {}}, "moving_variance_initializer": {"class_name": "Ones", "config": {}}, "beta_regularizer": null, "gamma_regularizer": null, "beta_constraint": null, "gamma_constraint": null, "synchronized": false}, "build_config": {"input_shape": [null, 56, 56, 24]}, "name": "expanded_conv_1_project_bn", "inbound_nodes": [{"args": [{"class_name": "__keras_tensor__", "config": {"shape": [null, 56, 56, 24], "dtype": "float32", "keras_history": ["expanded_conv_1_project", 0, 0]}}], "kwargs": {"mask": null}}]}, {"class_name": "Conv2D", "config": {"name": "expanded_conv_2_expand", "trainable": false, "dtype": {"class_name": "DTypePolicy", "config": {"name": "float32"}, "shared_object_id": 140251169567616}, "filters": 72, "kernel_size": [1, 1], "strides": [1, 1], "padding": "same", "data_format": "channels_last", "dilation_rate": [1, 1], "groups": 1, "activation": "linear", "use_bias": false, "kernel_initializer": {"class_name": "GlorotUniform", "config": {"seed": null}}, "bias_initializer": {"class_name": "Zeros", "config": {}}, "kernel_regularizer": null, "bias_regularizer": null, "activity_regularizer": null, "kernel_constraint": null, "bias_constraint": null}, "build_config": {"input_shape": [null, 56, 56, 24]}, "name": "expanded_conv_2_expand", "inbound_nodes": [{"args": [{"class_name": "__keras_tensor__", "config": {"shape": [null, 56, 56, 24], "dtype": "float32", "keras_history": ["expanded_conv_1_project_bn", 0, 0]}}], "kwargs": {}}]}, {"class_name": "BatchNormalization", "config": {"name": "expanded_conv_2_expand_bn", "trainable": false, "dtype": {"class_name": "DTypePolicy", "config": {"name": "float32"}, "shared_object_id": 140251169567616}, "axis": -1, "momentum": 0.999, "epsilon": 0.001, "center": true, "scale": true, "beta_initializer": {"class_name": "Zeros", "config": {}}, "gamma_initializer": {"class_name": "Ones", "config": {}}, "moving_mean_initializer": {"class_name": "Zeros", "config": {}}, "moving_variance_initializer": {"class_name": "Ones", "config": {}}, "beta_regularizer": null, "gamma_regularizer": null, "beta_constraint": null, "gamma_constraint": null, "synchronized": false}, "build_config": {"input_shape": [null, 56, 56, 72]}, "name": "expanded_conv_2_expand_bn", "inbound_nodes": [{"args": [{"class_name": "__keras_tensor__", "config": {"shape": [null, 56, 56, 72], "dtype": "float32", "keras_history": ["expanded_conv_2_expand", 0, 0]}}], "kwargs": {"mask": null}}]}, {"class_name": "ReLU", "config": {"name": "re_lu_3", "trainable": false, "dtype": {"class_name": "DTypePolicy", "config": {"name": "float32"}, "shared_object_id": 140251169567616}, "max_value": null, "negative_slope": 0.0, "threshold": 0.0}, "name": "re_lu_3", "inbound_nodes": [{"args": [{"class_name": "__keras_tensor__", "config": {"shape": [null, 56, 56, 72], "dtype": "float32", "keras_history": ["expanded_conv_2_expand_bn", 0, 0]}}], "kwargs": {}}]}, {"class_name": "DepthwiseConv2D", "config": {"name": "expanded_conv_2_depthwise", "trainable": false, "dtype": {"class_name": "DTypePolicy", "config": {"name": "float32"}, "shared_object_id": 140251169567616}, "depth_multiplier": 1, "kernel_size": [3, 3], "strides": [1, 1], "padding": "same", "data_format": "channels_last", "dilation_rate": [1, 1], "activation": "linear", "use_bias": false, "depthwise_initializer": {"class_name": "GlorotUniform", "config": {"seed": null}}, "bias_initializer": {"class_name": "Zeros", "config": {}}, "depthwise_regularizer": null, "bias_regularizer": null, "activity_regularizer": null, "depthwise_constraint": null, "bias_constraint": null}, "build_config": {"input_shape": [null, 56, 56, 72]}, "name": "expanded_conv_2_depthwise", "inbound_nodes": [{"args": [{"class_name": "__keras_tensor__", "config": {"shape": [null, 56, 56, 72], "dtype": "float32", "keras_history": ["re_lu_3", 0, 0]}}], "kwargs": {}}]}, {"class_name": "BatchNormalization", "config": {"name": "expanded_conv_2_depthwise_bn", "trainable": false, "dtype": {"class_name": "DTypePolicy", "config": {"name": "float32"}, "shared_object_id": 140251169567616}, "axis": -1, "momentum": 0.999, "epsilon": 0.001, "center": true, "scale": true, "beta_initializer": {"class_name": "Zeros", "config": {}}, "gamma_initializer": {"class_name": "Ones", "config": {}}, "moving_mean_initializer": {"class_name": "Zeros", "config": {}}, "moving_variance_initializer": {"class_name": "Ones", "config": {}}, "beta_regularizer": null, "gamma_regularizer": null, "beta_constraint": null, "gamma_constraint": null, "synchronized": false}, "build_config": {"input_shape": [null, 56, 56, 72]}, "name": "expanded_conv_2_depthwise_bn", "inbound_nodes": [{"args": [{"class_name": "__keras_tensor__", "config": {"shape": [null, 56, 56, 72], "dtype": "float32", "keras_history": ["expanded_conv_2_depthwise", 0, 0]}}], "kwargs": {"mask": null}}]}, {"class_name": "ReLU", "config": {"name": "re_lu_4", "trainable": false, "dtype": {"class_name": "DTypePolicy", "config": {"name": "float32"}, "shared_object_id": 140251169567616}, "max_value": null, "negative_slope": 0.0, "threshold": 0.0}, "name": "re_lu_4", "inbound_nodes": [{"args": [{"class_name": "__keras_tensor__", "config": {"shape": [null, 56, 56, 72], "dtype": "float32", "keras_history": ["expanded_conv_2_depthwise_bn", 0, 0]}}], "kwargs": {}}]}, {"class_name": "Conv2D", "config": {"name": "expanded_conv_2_project", "trainable": false, "dtype": {"class_name": "DTypePolicy", "config": {"name": "float32"}, "shared_object_id": 140251169567616}, "filters": 24, "kernel_size": [1, 1], "strides": [1, 1], "padding": "same", "data_format": "channels_last", "dilation_rate": [1, 1], "groups": 1, "activation": "linear", "use_bias": false, "kernel_initializer": {"class_name": "GlorotUniform", "config": {"seed": null}}, "bias_initializer": {"class_name": "Zeros", "config": {}}, "kernel_regularizer": null, "bias_regularizer": null, "activity_regularizer": null, "kernel_constraint": null, "bias_constraint": null}, "build_config": {"input_shape": [null, 56, 56, 72]}, "name": "expanded_conv_2_project", "inbound_nodes": [{"args": [{"class_name": "__keras_tensor__", "config": {"shape": [null, 56, 56, 72], "dtype": "float32", "keras_history": ["re_lu_4", 0, 0]}}], "kwargs": {}}]}, {"class_name": "BatchNormalization", "config": {"name": "expanded_conv_2_project_bn", "trainable": false, "dtype": {"class_name": "DTypePolicy", "config": {"name": "float32"}, "shared_object_id": 140251169567616}, "axis": -1, "momentum": 0.999, "epsilon": 0.001, "center": true, "scale": true, "beta_initializer": {"class_name": "Zeros", "config": {}}, "gamma_initializer": {"class_name": "Ones", "config": {}}, "moving_mean_initializer": {"class_name": "Zeros", "config": {}}, "moving_variance_initializer": {"class_name": "Ones", "config": {}}, "beta_regularizer": null, "gamma_regularizer": null, "beta_constraint": null, "gamma_constraint": null, "synchronized": false}, "build_config": {"input_shape": [null, 56, 56, 24]}, "name": "expanded_conv_2_project_bn", "inbound_nodes": [{"args": [{"class_name": "__keras_tensor__", "config": {"shape": [null, 56, 56, 24], "dtype": "float32", "keras_history": ["expanded_conv_2_project", 0, 0]}}], "kwargs": {"mask": null}}]}, {"class_name": "Add", "config": {"name": "expanded_conv_2_add", "trainable": false, "dtype": {"class_name": "DTypePolicy", "config": {"name": "float32"}, "shared_object_id": 140251169567616}}, "build_config": {"input_shape": [[null, 56, 56, 24], [null, 56, 56, 24]]}, "name": "expanded_conv_2_add", "inbound_nodes": [{"args": [[{"class_name": "__keras_tensor__", "config": {"shape": [null, 56, 56, 24], "dtype": "float32", "keras_history": ["expanded_conv_1_project_bn", 0, 0]}}, {"class_name": "__keras_tensor__", "config": {"shape": [null, 56, 56, 24], "dtype": "float32", "keras_history": ["expanded_conv_2_project_bn", 0, 0]}}]], "kwargs": {}}]}, {"class_name": "Conv2D", "config": {"name": "expanded_conv_3_expand", "trainable": false, "dtype": {"class_name": "DTypePolicy", "config": {"name": "float32"}, "shared_object_id": 140251169567616}, "filters": 72, "kernel_size": [1, 1], "strides": [1, 1], "padding": "same", "data_format": "channels_last", "dilation_rate": [1, 1], "groups": 1, "activation": "linear", "use_bias": false, "kernel_initializer": {"class_name": "GlorotUniform", "config": {"seed": null}}, "bias_initializer": {"class_name": "Zeros", "config": {}}, "kernel_regularizer": null, "bias_regularizer": null, "activity_regularizer": null, "kernel_constraint": null, "bias_constraint": null}, "build_config": {"input_shape": [null, 56, 56, 24]}, "name": "expanded_conv_3_expand", "inbound_nodes": [{"args": [{"class_name": "__keras_tensor__", "config": {"shape": [null, 56, 56, 24], "dtype": "float32", "keras_history": ["expanded_conv_2_add", 0, 0]}}], "kwargs": {}}]}, {"class_name": "BatchNormalization", "config": {"name": "expanded_conv_3_expand_bn", "trainable": false, "dtype": {"class_name": "DTypePolicy", "config": {"name": "float32"}, "shared_object_id": 140251169567616}, "axis": -1, "momentum": 0.999, "epsilon": 0.001, "center": true, "scale": true, "beta_initializer": {"class_name": "Zeros", "config": {}}, "gamma_initializer": {"class_name": "Ones", "config": {}}, "moving_mean_initializer": {"class_name": "Zeros", "config": {}}, "moving_variance_initializer": {"class_name": "Ones", "config": {}}, "beta_regularizer": null, "gamma_regularizer": null, "beta_constraint": null, "gamma_constraint": null, "synchronized": false}, "build_config": {"input_shape": [null, 56, 56, 72]}, "name": "expanded_conv_3_expand_bn", "inbound_nodes": [{"args": [{"class_name": "__keras_tensor__", "config": {"shape": [null, 56, 56, 72], "dtype": "float32", "keras_history": ["expanded_conv_3_expand", 0, 0]}}], "kwargs": {"mask": null}}]}, {"class_name": "ReLU", "config": {"name": "re_lu_5", "trainable": false, "dtype": {"class_name": "DTypePolicy", "config": {"name": "float32"}, "shared_object_id": 140251169567616}, "max_value": null, "negative_slope": 0.0, "threshold": 0.0}, "name": "re_lu_5", "inbound_nodes": [{"args": [{"class_name": "__keras_tensor__", "config": {"shape": [null, 56, 56, 72], "dtype": "float32", "keras_history": ["expanded_conv_3_expand_bn", 0, 0]}}], "kwargs": {}}]}, {"class_name": "ZeroPadding2D", "config": {"name": "expanded_conv_3_depthwise_pad", "trainable": false, "dtype": {"class_name": "DTypePolicy", "config": {"name": "float32"}, "shared_object_id": 140251169567616}, "padding": [[1, 2], [1, 2]], "data_format": "channels_last"}, "build_config": {"input_shape": [null, 56, 56, 72]}, "name": "expanded_conv_3_depthwise_pad", "inbound_nodes": [{"args": [{"class_name": "__keras_tensor__", "config": {"shape": [null, 56, 56, 72], "dtype": "float32", "keras_history": ["re_lu_5", 0, 0]}}], "kwargs": {}}]}, {"class_name": "DepthwiseConv2D", "config": {"name": "expanded_conv_3_depthwise", "trainable": false, "dtype": {"class_name": "DTypePolicy", "config": {"name": "float32"}, "shared_object_id": 140251169567616}, "depth_multiplier": 1, "kernel_size": [5, 5], "strides": [2, 2], "padding": "valid", "data_format": "channels_last", "dilation_rate": [1, 1], "activation": "linear", "use_bias": false, "depthwise_initializer": {"class_name": "GlorotUniform", "config": {"seed": null}}, "bias_initializer": {"class_name": "Zeros", "config": {}}, "depthwise_regularizer": null, "bias_regularizer": null, "activity_regularizer": null, "depthwise_constraint": null, "bias_constraint": null}, "build_config": {"input_shape": [null, 59, 59, 72]}, "name": "expanded_conv_3_depthwise", "inbound_nodes": [{"args": [{"class_name": "__keras_tensor__", "config": {"shape": [null, 59, 59, 72], "dtype": "float32", "keras_history": ["expanded_conv_3_depthwise_pad", 0, 0]}}], "kwargs": {}}]}, {"class_name": "BatchNormalization", "config": {"name": "expanded_conv_3_depthwise_bn", "trainable": false, "dtype": {"class_name": "DTypePolicy", "config": {"name": "float32"}, "shared_object_id": 140251169567616}, "axis": -1, "momentum": 0.999, "epsilon": 0.001, "center": true, "scale": true, "beta_initializer": {"class_name": "Zeros", "config": {}}, "gamma_initializer": {"class_name": "Ones", "config": {}}, "moving_mean_initializer": {"class_name": "Zeros", "config": {}}, "moving_variance_initializer": {"class_name": "Ones", "config": {}}, "beta_regularizer": null, "gamma_regularizer": null, "beta_constraint": null, "gamma_constraint": null, "synchronized": false}, "build_config": {"input_shape": [null, 28, 28, 72]}, "name": "expanded_conv_3_depthwise_bn", "inbound_nodes": [{"args": [{"class_name": "__keras_tensor__", "config": {"shape": [null, 28, 28, 72], "dtype": "float32", "keras_history": ["expanded_conv_3_depthwise", 0, 0]}}], "kwargs": {"mask": null}}]}, {"class_name": "ReLU", "config": {"name": "re_lu_6", "trainable": false, "dtype": {"class_name": "DTypePolicy", "config": {"name": "float32"}, "shared_object_id": 140251169567616}, "max_value": null, "negative_slope": 0.0, "threshold": 0.0}, "name": "re_lu_6", "inbound_nodes": [{"args": [{"class_name": "__keras_tensor__", "config": {"shape": [null, 28, 28, 72], "dtype": "float32", "keras_history": ["expanded_conv_3_depthwise_bn", 0, 0]}}], "kwargs": {}}]}, {"class_name": "GlobalAveragePooling2D", "config": {"name": "expanded_conv_3_squeeze_excite_avg_pool", "trainable": false, "dtype": {"class_name": "DTypePolicy", "config": {"name": "float32"}, "shared_object_id": 140251169567616}, "data_format": "channels_last", "keepdims": true}, "name": "expanded_conv_3_squeeze_excite_avg_pool", "inbound_nodes": [{"args": [{"class_name": "__keras_tensor__", "config": {"shape": [null, 28, 28, 72], "dtype": "float32", "keras_history": ["re_lu_6", 0, 0]}}], "kwargs": {}}]}, {"class_name": "Conv2D", "config": {"name": "expanded_conv_3_squeeze_excite_conv", "trainable": false, "dtype": {"class_name": "DTypePolicy", "config": {"name": "float32"}, "shared_object_id": 140251169567616}, "filters": 24, "kernel_size": [1, 1], "strides": [1, 1], "padding": "same", "data_format": "channels_last", "dilation_rate": [1, 1], "groups": 1, "activation": "linear", "use_bias": true, "kernel_initializer": {"class_name": "GlorotUniform", "config": {"seed": null}}, "bias_initializer": {"class_name": "Zeros", "config": {}}, "kernel_regularizer": null, "bias_regularizer": null, "activity_regularizer": null, "kernel_constraint": null, "bias_constraint": null}, "build_config": {"input_shape": [null, 1, 1, 72]}, "name": "expanded_conv_3_squeeze_excite_conv", "inbound_nodes": [{"args": [{"class_name": "__keras_tensor__", "config": {"shape": [null, 1, 1, 72], "dtype": "float32", "keras_history": ["expanded_conv_3_squeeze_excite_avg_pool", 0, 0]}}], "kwargs": {}}]}, {"class_name": "ReLU", "config": {"name": "expanded_conv_3_squeeze_excite_relu", "trainable": false, "dtype": {"class_name": "DTypePolicy", "config": {"name": "float32"}, "shared_object_id": 140251169567616}, "max_value": null, "negative_slope": 0.0, "threshold": 0.0}, "name": "expanded_conv_3_squeeze_excite_relu", "inbound_nodes": [{"args": [{"class_name": "__keras_tensor__", "config": {"shape": [null, 1, 1, 24], "dtype": "float32", "keras_history": ["expanded_conv_3_squeeze_excite_conv", 0, 0]}}], "kwargs": {}}]}, {"class_name": "Conv2D", "config": {"name": "expanded_conv_3_squeeze_excite_conv_1", "trainable": false, "dtype": {"class_name": "DTypePolicy", "config": {"name": "float32"}, "shared_object_id": 140251169567616}, "filters": 72, "kernel_size": [1, 1], "strides": [1, 1], "padding": "same", "data_format": "channels_last", "dilation_rate": [1, 1], "groups": 1, "activation": "linear", "use_bias": true, "kernel_initializer": {"class_name": "GlorotUniform", "config": {"seed": null}}, "bias_initializer": {"class_name": "Zeros", "config": {}}, "kernel_regularizer": null, "bias_regularizer": null, "activity_regularizer": null, "kernel_constraint": null, "bias_constraint": null}, "build_config": {"input_shape": [null, 1, 1, 24]}, "name": "expanded_conv_3_squeeze_excite_conv_1", "inbound_nodes": [{"args": [{"class_name": "__keras_tensor__", "config": {"shape": [null, 1, 1, 24], "dtype": "float32", "keras_history": ["expanded_conv_3_squeeze_excite_relu", 0, 0]}}], "kwargs": {}}]}, {"class_name": "Add", "config": {"name": "add"}, "name": "add", "inbound_nodes": [{"args": [{"class_name": "__keras_tensor__", "config": {"shape": [null, 1, 1, 72], "dtype": "float32", "keras_history": ["expanded_conv_3_squeeze_excite_conv_1", 0, 0]}}, 3.0], "kwargs": {}}]}, {"class_name": "ReLU", "config": {"name": "re_lu_7", "trainable": false, "dtype": {"class_name": "DTypePolicy", "config": {"name": "float32"}, "shared_object_id": 140251169567616}, "max_value": 6.0, "negative_slope": 0.0, "threshold": 0.0}, "name": "re_lu_7", "inbound_nodes": [{"args": [{"class_name": "__keras_tensor__", "config": {"shape": [null, 1, 1, 72], "dtype": "float32", "keras_history": ["add", 0, 0]}}], "kwargs": {}}]}, {"class_name": "Multiply", "config": {"name": "multiply"}, "name": "multiply", "inbound_nodes": [{"args": [{"class_name": "__keras_tensor__", "config": {"shape": [null, 1, 1, 72], "dtype": "float32", "keras_history": ["re_lu_7", 0, 0]}}, 0.16666666666666666], "kwargs": {}}]}, {"class_name": "Multiply", "config": {"name": "expanded_conv_3_squeeze_excite_mul", "trainable": false, "dtype": {"class_name": "DTypePolicy", "config": {"name": "float32"}, "shared_object_id": 140251169567616}}, "build_config": {"input_shape": [[null, 28, 28, 72], [null, 1, 1, 72]]}, "name": "expanded_conv_3_squeeze_excite_mul", "inbound_nodes": [{"args": [[{"class_name": "__keras_tensor__", "config": {"shape": [null, 28, 28, 72], "dtype": "float32", "keras_history": ["re_lu_6", 0, 0]}}, {"class_name": "__keras_tensor__", "config": {"shape": [null, 1, 1, 72], "dtype": "float32", "keras_history": ["multiply", 0, 0]}}]], "kwargs": {}}]}, {"class_name": "Conv2D", "config": {"name": "expanded_conv_3_project", "trainable": false, "dtype": {"class_name": "DTypePolicy", "config": {"name": "float32"}, "shared_object_id": 140251169567616}, "filters": 40, "kernel_size": [1, 1], "strides": [1, 1], "padding": "same", "data_format": "channels_last", "dilation_rate": [1, 1], "groups": 1, "activation": "linear", "use_bias": false, "kernel_initializer": {"class_name": "GlorotUniform", "config": {"seed": null}}, "bias_initializer": {"class_name": "Zeros", "config": {}}, "kernel_regularizer": null, "bias_regularizer": null, "activity_regularizer": null, "kernel_constraint": null, "bias_constraint": null}, "build_config": {"input_shape": [null, 28, 28, 72]}, "name": "expanded_conv_3_project", "inbound_nodes": [{"args": [{"class_name": "__keras_tensor__", "config": {"shape": [null, 28, 28, 72], "dtype": "float32", "keras_history": ["expanded_conv_3_squeeze_excite_mul", 0, 0]}}], "kwargs": {}}]}, {"class_name": "BatchNormalization", "config": {"name": "expanded_conv_3_project_bn", "trainable": false, "dtype": {"class_name": "DTypePolicy", "config": {"name": "float32"}, "shared_object_id": 140251169567616}, "axis": -1, "momentum": 0.999, "epsilon": 0.001, "center": true, "scale": true, "beta_initializer": {"class_name": "Zeros", "config": {}}, "gamma_initializer": {"class_name": "Ones", "config": {}}, "moving_mean_initializer": {"class_name": "Zeros", "config": {}}, "moving_variance_initializer": {"class_name": "Ones", "config": {}}, "beta_regularizer": null, "gamma_regularizer": null, "beta_constraint": null, "gamma_constraint": null, "synchronized": false}, "build_config": {"input_shape": [null, 28, 28, 40]}, "name": "expanded_conv_3_project_bn", "inbound_nodes": [{"args": [{"class_name": "__keras_tensor__", "config": {"shape": [null, 28, 28, 40], "dtype": "float32", "keras_history": ["expanded_conv_3_project", 0, 0]}}], "kwargs": {"mask": null}}]}, {"class_name": "Conv2D", "config": {"name": "expanded_conv_4_expand", "trainable": false, "dtype": {"class_name": "DTypePolicy", "config": {"name": "float32"}, "shared_object_id": 140251169567616}, "filters": 120, "kernel_size": [1, 1], "strides": [1, 1], "padding": "same", "data_format": "channels_last", "dilation_rate": [1, 1], "groups": 1, "activation": "linear", "use_bias": false, "kernel_initializer": {"class_name": "GlorotUniform", "config": {"seed": null}}, "bias_initializer": {"class_name": "Zeros", "config": {}}, "kernel_regularizer": null, "bias_regularizer": null, "activity_regularizer": null, "kernel_constraint": null, "bias_constraint": null}, "build_config": {"input_shape": [null, 28, 28, 40]}, "name": "expanded_conv_4_expand", "inbound_nodes": [{"args": [{"class_name": "__keras_tensor__", "config": {"shape": [null, 28, 28, 40], "dtype": "float32", "keras_history": ["expanded_conv_3_project_bn", 0, 0]}}], "kwargs": {}}]}, {"class_name": "BatchNormalization", "config": {"name": "expanded_conv_4_expand_bn", "trainable": false, "dtype": {"class_name": "DTypePolicy", "config": {"name": "float32"}, "shared_object_id": 140251169567616}, "axis": -1, "momentum": 0.999, "epsilon": 0.001, "center": true, "scale": true, "beta_initializer": {"class_name": "Zeros", "config": {}}, "gamma_initializer": {"class_name": "Ones", "config": {}}, "moving_mean_initializer": {"class_name": "Zeros", "config": {}}, "moving_variance_initializer": {"class_name": "Ones", "config": {}}, "beta_regularizer": null, "gamma_regularizer": null, "beta_constraint": null, "gamma_constraint": null, "synchronized": false}, "build_config": {"input_shape": [null, 28, 28, 120]}, "name": "expanded_conv_4_expand_bn", "inbound_nodes": [{"args": [{"class_name": "__keras_tensor__", "config": {"shape": [null, 28, 28, 120], "dtype": "float32", "keras_history": ["expanded_conv_4_expand", 0, 0]}}], "kwargs": {"mask": null}}]}, {"class_name": "ReLU", "config": {"name": "re_lu_8", "trainable": false, "dtype": {"class_name": "DTypePolicy", "config": {"name": "float32"}, "shared_object_id": 140251169567616}, "max_value": null, "negative_slope": 0.0, "threshold": 0.0}, "name": "re_lu_8", "inbound_nodes": [{"args": [{"class_name": "__keras_tensor__", "config": {"shape": [null, 28, 28, 120], "dtype": "float32", "keras_history": ["expanded_conv_4_expand_bn", 0, 0]}}], "kwargs": {}}]}, {"class_name": "DepthwiseConv2D", "config": {"name": "expanded_conv_4_depthwise", "trainable": false, "dtype": {"class_name": "DTypePolicy", "config": {"name": "float32"}, "shared_object_id": 140251169567616}, "depth_multiplier": 1, "kernel_size": [5, 5], "strides": [1, 1], "padding": "same", "data_format": "channels_last", "dilation_rate": [1, 1], "activation": "linear", "use_bias": false, "depthwise_initializer": {"class_name": "GlorotUniform", "config": {"seed": null}}, "bias_initializer": {"class_name": "Zeros", "config": {}}, "depthwise_regularizer": null, "bias_regularizer": null, "activity_regularizer": null, "depthwise_constraint": null, "bias_constraint": null}, "build_config": {"input_shape": [null, 28, 28, 120]}, "name": "expanded_conv_4_depthwise", "inbound_nodes": [{"args": [{"class_name": "__keras_tensor__", "config": {"shape": [null, 28, 28, 120], "dtype": "float32", "keras_history": ["re_lu_8", 0, 0]}}], "kwargs": {}}]}, {"class_name": "BatchNormalization", "config": {"name": "expanded_conv_4_depthwise_bn", "trainable": false, "dtype": {"class_name": "DTypePolicy", "config": {"name": "float32"}, "shared_object_id": 140251169567616}, "axis": -1, "momentum": 0.999, "epsilon": 0.001, "center": true, "scale": true, "beta_initializer": {"class_name": "Zeros", "config": {}}, "gamma_initializer": {"class_name": "Ones", "config": {}}, "moving_mean_initializer": {"class_name": "Zeros", "config": {}}, "moving_variance_initializer": {"class_name": "Ones", "config": {}}, "beta_regularizer": null, "gamma_regularizer": null, "beta_constraint": null, "gamma_constraint": null, "synchronized": false}, "build_config": {"input_shape": [null, 28, 28, 120]}, "name": "expanded_conv_4_depthwise_bn", "inbound_nodes": [{"args": [{"class_name": "__keras_tensor__", "config": {"shape": [null, 28, 28, 120], "dtype": "float32", "keras_history": ["expanded_conv_4_depthwise", 0, 0]}}], "kwargs": {"mask": null}}]}, {"class_name": "ReLU", "config": {"name": "re_lu_9", "trainable": false, "dtype": {"class_name": "DTypePolicy", "config": {"name": "float32"}, "shared_object_id": 140251169567616}, "max_value": null, "negative_slope": 0.0, "threshold": 0.0}, "name": "re_lu_9", "inbound_nodes": [{"args": [{"class_name": "__keras_tensor__", "config": {"shape": [null, 28, 28, 120], "dtype": "float32", "keras_history": ["expanded_conv_4_depthwise_bn", 0, 0]}}], "kwargs": {}}]}, {"class_name": "GlobalAveragePooling2D", "config": {"name": "expanded_conv_4_squeeze_excite_avg_pool", "trainable": false, "dtype": {"class_name": "DTypePolicy", "config": {"name": "float32"}, "shared_object_id": 140251169567616}, "data_format": "channels_last", "keepdims": true}, "name": "expanded_conv_4_squeeze_excite_avg_pool", "inbound_nodes": [{"args": [{"class_name": "__keras_tensor__", "config": {"shape": [null, 28, 28, 120], "dtype": "float32", "keras_history": ["re_lu_9", 0, 0]}}], "kwargs": {}}]}, {"class_name": "Conv2D", "config": {"name": "expanded_conv_4_squeeze_excite_conv", "trainable": false, "dtype": {"class_name": "DTypePolicy", "config": {"name": "float32"}, "shared_object_id": 140251169567616}, "filters": 32, "kernel_size": [1, 1], "strides": [1, 1], "padding": "same", "data_format": "channels_last", "dilation_rate": [1, 1], "groups": 1, "activation": "linear", "use_bias": true, "kernel_initializer": {"class_name": "GlorotUniform", "config": {"seed": null}}, "bias_initializer": {"class_name": "Zeros", "config": {}}, "kernel_regularizer": null, "bias_regularizer": null, "activity_regularizer": null, "kernel_constraint": null, "bias_constraint": null}, "build_config": {"input_shape": [null, 1, 1, 120]}, "name": "expanded_conv_4_squeeze_excite_conv", "inbound_nodes": [{"args": [{"class_name": "__keras_tensor__", "config": {"shape": [null, 1, 1, 120], "dtype": "float32", "keras_history": ["expanded_conv_4_squeeze_excite_avg_pool", 0, 0]}}], "kwargs": {}}]}, {"class_name": "ReLU", "config": {"name": "expanded_conv_4_squeeze_excite_relu", "trainable": false, "dtype": {"class_name": "DTypePolicy", "config": {"name": "float32"}, "shared_object_id": 140251169567616}, "max_value": null, "negative_slope": 0.0, "threshold": 0.0}, "name": "expanded_conv_4_squeeze_excite_relu", "inbound_nodes": [{"args": [{"class_name": "__keras_tensor__", "config": {"shape": [null, 1, 1, 32], "dtype": "float32", "keras_history": ["expanded_conv_4_squeeze_excite_conv", 0, 0]}}], "kwargs": {}}]}, {"class_name": "Conv2D", "config": {"name": "expanded_conv_4_squeeze_excite_conv_1", "trainable": false, "dtype": {"class_name": "DTypePolicy", "config": {"name": "float32"}, "shared_object_id": 140251169567616}, "filters": 120, "kernel_size": [1, 1], "strides": [1, 1], "padding": "same", "data_format": "channels_last", "dilation_rate": [1, 1], "groups": 1, "activation": "linear", "use_bias": true, "kernel_initializer": {"class_name": "GlorotUniform", "config": {"seed": null}}, "bias_initializer": {"class_name": "Zeros", "config": {}}, "kernel_regularizer": null, "bias_regularizer": null, "activity_regularizer": null, "kernel_constraint": null, "bias_constraint": null}, "build_config": {"input_shape": [null, 1, 1, 32]}, "name": "expanded_conv_4_squeeze_excite_conv_1", "inbound_nodes": [{"args": [{"class_name": "__keras_tensor__", "config": {"shape": [null, 1, 1, 32], "dtype": "float32", "keras_history": ["expanded_conv_4_squeeze_excite_relu", 0, 0]}}], "kwargs": {}}]}, {"class_name": "Add", "config": {"name": "add_1"}, "name": "add_1", "inbound_nodes": [{"args": [{"class_name": "__keras_tensor__", "config": {"shape": [null, 1, 1, 120], "dtype": "float32", "keras_history": ["expanded_conv_4_squeeze_excite_conv_1", 0, 0]}}, 3.0], "kwargs": {}}]}, {"class_name": "ReLU", "config": {"name": "re_lu_10", "trainable": false, "dtype": {"class_name": "DTypePolicy", "config": {"name": "float32"}, "shared_object_id": 140251169567616}, "max_value": 6.0, "negative_slope": 0.0, "threshold": 0.0}, "name": "re_lu_10", "inbound_nodes": [{"args": [{"class_name": "__keras_tensor__", "config": {"shape": [null, 1, 1, 120], "dtype": "float32", "keras_history": ["add_1", 0, 0]}}], "kwargs": {}}]}, {"class_name": "Multiply", "config": {"name": "multiply_1"}, "name": "multiply_1", "inbound_nodes": [{"args": [{"class_name": "__keras_tensor__", "config": {"shape": [null, 1, 1, 120], "dtype": "float32", "keras_history": ["re_lu_10", 0, 0]}}, 0.16666666666666666], "kwargs": {}}]}, {"class_name": "Multiply", "config": {"name": "expanded_conv_4_squeeze_excite_mul", "trainable": false, "dtype": {"class_name": "DTypePolicy", "config": {"name": "float32"}, "shared_object_id": 140251169567616}}, "build_config": {"input_shape": [[null, 28, 28, 120], [null, 1, 1, 120]]}, "name": "expanded_conv_4_squeeze_excite_mul", "inbound_nodes": [{"args": [[{"class_name": "__keras_tensor__", "config": {"shape": [null, 28, 28, 120], "dtype": "float32", "keras_history": ["re_lu_9", 0, 0]}}, {"class_name": "__keras_tensor__", "config": {"shape": [null, 1, 1, 120], "dtype": "float32", "keras_history": ["multiply_1", 0, 0]}}]], "kwargs": {}}]}, {"class_name": "Conv2D", "config": {"name": "expanded_conv_4_project", "trainable": false, "dtype": {"class_name": "DTypePolicy", "config": {"name": "float32"}, "shared_object_id": 140251169567616}, "filters": 40, "kernel_size": [1, 1], "strides": [1, 1], "padding": "same", "data_format": "channels_last", "dilation_rate": [1, 1], "groups": 1, "activation": "linear", "use_bias": false, "kernel_initializer": {"class_name": "GlorotUniform", "config": {"seed": null}}, "bias_initializer": {"class_name": "Zeros", "config": {}}, "kernel_regularizer": null, "bias_regularizer": null, "activity_regularizer": null, "kernel_constraint": null, "bias_constraint": null}, "build_config": {"input_shape": [null, 28, 28, 120]}, "name": "expanded_conv_4_project", "inbound_nodes": [{"args": [{"class_name": "__keras_tensor__", "config": {"shape": [null, 28, 28, 120], "dtype": "float32", "keras_history": ["expanded_conv_4_squeeze_excite_mul", 0, 0]}}], "kwargs": {}}]}, {"class_name": "BatchNormalization", "config": {"name": "expanded_conv_4_project_bn", "trainable": false, "dtype": {"class_name": "DTypePolicy", "config": {"name": "float32"}, "shared_object_id": 140251169567616}, "axis": -1, "momentum": 0.999, "epsilon": 0.001, "center": true, "scale": true, "beta_initializer": {"class_name": "Zeros", "config": {}}, "gamma_initializer": {"class_name": "Ones", "config": {}}, "moving_mean_initializer": {"class_name": "Zeros", "config": {}}, "moving_variance_initializer": {"class_name": "Ones", "config": {}}, "beta_regularizer": null, "gamma_regularizer": null, "beta_constraint": null, "gamma_constraint": null, "synchronized": false}, "build_config": {"input_shape": [null, 28, 28, 40]}, "name": "expanded_conv_4_project_bn", "inbound_nodes": [{"args": [{"class_name": "__keras_tensor__", "config": {"shape": [null, 28, 28, 40], "dtype": "float32", "keras_history": ["expanded_conv_4_project", 0, 0]}}], "kwargs": {"mask": null}}]}, {"class_name": "Add", "config": {"name": "expanded_conv_4_add", "trainable": false, "dtype": {"class_name": "DTypePolicy", "config": {"name": "float32"}, "shared_object_id": 140251169567616}}, "build_config": {"input_shape": [[null, 28, 28, 40], [null, 28, 28, 40]]}, "name": "expanded_conv_4_add", "inbound_nodes": [{"args": [[{"class_name": "__keras_tensor__", "config": {"shape": [null, 28, 28, 40], "dtype": "float32", "keras_history": ["expanded_conv_3_project_bn", 0, 0]}}, {"class_name": "__keras_tensor__", "config": {"shape": [null, 28, 28, 40], "dtype": "float32", "keras_history": ["expanded_conv_4_project_bn", 0, 0]}}]], "kwargs": {}}]}, {"class_name": "Conv2D", "config": {"name": "expanded_conv_5_expand", "trainable": false, "dtype": {"class_name": "DTypePolicy", "config": {"name": "float32"}, "shared_object_id": 140251169567616}, "filters": 120, "kernel_size": [1, 1], "strides": [1, 1], "padding": "same", "data_format": "channels_last", "dilation_rate": [1, 1], "groups": 1, "activation": "linear", "use_bias": false, "kernel_initializer": {"class_name": "GlorotUniform", "config": {"seed": null}}, "bias_initializer": {"class_name": "Zeros", "config": {}}, "kernel_regularizer": null, "bias_regularizer": null, "activity_regularizer": null, "kernel_constraint": null, "bias_constraint": null}, "build_config": {"input_shape": [null, 28, 28, 40]}, "name": "expanded_conv_5_expand", "inbound_nodes": [{"args": [{"class_name": "__keras_tensor__", "config": {"shape": [null, 28, 28, 40], "dtype": "float32", "keras_history": ["expanded_conv_4_add", 0, 0]}}], "kwargs": {}}]}, {"class_name": "BatchNormalization", "config": {"name": "expanded_conv_5_expand_bn", "trainable": false, "dtype": {"class_name": "DTypePolicy", "config": {"name": "float32"}, "shared_object_id": 140251169567616}, "axis": -1, "momentum": 0.999, "epsilon": 0.001, "center": true, "scale": true, "beta_initializer": {"class_name": "Zeros", "config": {}}, "gamma_initializer": {"class_name": "Ones", "config": {}}, "moving_mean_initializer": {"class_name": "Zeros", "config": {}}, "moving_variance_initializer": {"class_name": "Ones", "config": {}}, "beta_regularizer": null, "gamma_regularizer": null, "beta_constraint": null, "gamma_constraint": null, "synchronized": false}, "build_config": {"input_shape": [null, 28, 28, 120]}, "name": "expanded_conv_5_expand_bn", "inbound_nodes": [{"args": [{"class_name": "__keras_tensor__", "config": {"shape": [null, 28, 28, 120], "dtype": "float32", "keras_history": ["expanded_conv_5_expand", 0, 0]}}], "kwargs": {"mask": null}}]}, {"class_name": "ReLU", "config": {"name": "re_lu_11", "trainable": false, "dtype": {"class_name": "DTypePolicy", "config": {"name": "float32"}, "shared_object_id": 140251169567616}, "max_value": null, "negative_slope": 0.0, "threshold": 0.0}, "name": "re_lu_11", "inbound_nodes": [{"args": [{"class_name": "__keras_tensor__", "config": {"shape": [null, 28, 28, 120], "dtype": "float32", "keras_history": ["expanded_conv_5_expand_bn", 0, 0]}}], "kwargs": {}}]}, {"class_name": "DepthwiseConv2D", "config": {"name": "expanded_conv_5_depthwise", "trainable": false, "dtype": {"class_name": "DTypePolicy", "config": {"name": "float32"}, "shared_object_id": 140251169567616}, "depth_multiplier": 1, "kernel_size": [5, 5], "strides": [1, 1], "padding": "same", "data_format": "channels_last", "dilation_rate": [1, 1], "activation": "linear", "use_bias": false, "depthwise_initializer": {"class_name": "GlorotUniform", "config": {"seed": null}}, "bias_initializer": {"class_name": "Zeros", "config": {}}, "depthwise_regularizer": null, "bias_regularizer": null, "activity_regularizer": null, "depthwise_constraint": null, "bias_constraint": null}, "build_config": {"input_shape": [null, 28, 28, 120]}, "name": "expanded_conv_5_depthwise", "inbound_nodes": [{"args": [{"class_name": "__keras_tensor__", "config": {"shape": [null, 28, 28, 120], "dtype": "float32", "keras_history": ["re_lu_11", 0, 0]}}], "kwargs": {}}]}, {"class_name": "BatchNormalization", "config": {"name": "expanded_conv_5_depthwise_bn", "trainable": false, "dtype": {"class_name": "DTypePolicy", "config": {"name": "float32"}, "shared_object_id": 140251169567616}, "axis": -1, "momentum": 0.999, "epsilon": 0.001, "center": true, "scale": true, "beta_initializer": {"class_name": "Zeros", "config": {}}, "gamma_initializer": {"class_name": "Ones", "config": {}}, "moving_mean_initializer": {"class_name": "Zeros", "config": {}}, "moving_variance_initializer": {"class_name": "Ones", "config": {}}, "beta_regularizer": null, "gamma_regularizer": null, "beta_constraint": null, "gamma_constraint": null, "synchronized": false}, "build_config": {"input_shape": [null, 28, 28, 120]}, "name": "expanded_conv_5_depthwise_bn", "inbound_nodes": [{"args": [{"class_name": "__keras_tensor__", "config": {"shape": [null, 28, 28, 120], "dtype": "float32", "keras_history": ["expanded_conv_5_depthwise", 0, 0]}}], "kwargs": {"mask": null}}]}, {"class_name": "ReLU", "config": {"name": "re_lu_12", "trainable": false, "dtype": {"class_name": "DTypePolicy", "config": {"name": "float32"}, "shared_object_id": 140251169567616}, "max_value": null, "negative_slope": 0.0, "threshold": 0.0}, "name": "re_lu_12", "inbound_nodes": [{"args": [{"class_name": "__keras_tensor__", "config": {"shape": [null, 28, 28, 120], "dtype": "float32", "keras_history": ["expanded_conv_5_depthwise_bn", 0, 0]}}], "kwargs": {}}]}, {"class_name": "GlobalAveragePooling2D", "config": {"name": "expanded_conv_5_squeeze_excite_avg_pool", "trainable": false, "dtype": {"class_name": "DTypePolicy", "config": {"name": "float32"}, "shared_object_id": 140251169567616}, "data_format": "channels_last", "keepdims": true}, "name": "expanded_conv_5_squeeze_excite_avg_pool", "inbound_nodes": [{"args": [{"class_name": "__keras_tensor__", "config": {"shape": [null, 28, 28, 120], "dtype": "float32", "keras_history": ["re_lu_12", 0, 0]}}], "kwargs": {}}]}, {"class_name": "Conv2D", "config": {"name": "expanded_conv_5_squeeze_excite_conv", "trainable": false, "dtype": {"class_name": "DTypePolicy", "config": {"name": "float32"}, "shared_object_id": 140251169567616}, "filters": 32, "kernel_size": [1, 1], "strides": [1, 1], "padding": "same", "data_format": "channels_last", "dilation_rate": [1, 1], "groups": 1, "activation": "linear", "use_bias": true, "kernel_initializer": {"class_name": "GlorotUniform", "config": {"seed": null}}, "bias_initializer": {"class_name": "Zeros", "config": {}}, "kernel_regularizer": null, "bias_regularizer": null, "activity_regularizer": null, "kernel_constraint": null, "bias_constraint": null}, "build_config": {"input_shape": [null, 1, 1, 120]}, "name": "expanded_conv_5_squeeze_excite_conv", "inbound_nodes": [{"args": [{"class_name": "__keras_tensor__", "config": {"shape": [null, 1, 1, 120], "dtype": "float32", "keras_history": ["expanded_conv_5_squeeze_excite_avg_pool", 0, 0]}}], "kwargs": {}}]}, {"class_name": "ReLU", "config": {"name": "expanded_conv_5_squeeze_excite_relu", "trainable": false, "dtype": {"class_name": "DTypePolicy", "config": {"name": "float32"}, "shared_object_id": 140251169567616}, "max_value": null, "negative_slope": 0.0, "threshold": 0.0}, "name": "expanded_conv_5_squeeze_excite_relu", "inbound_nodes": [{"args": [{"class_name": "__keras_tensor__", "config": {"shape": [null, 1, 1, 32], "dtype": "float32", "keras_history": ["expanded_conv_5_squeeze_excite_conv", 0, 0]}}], "kwargs": {}}]}, {"class_name": "Conv2D", "config": {"name": "expanded_conv_5_squeeze_excite_conv_1", "trainable": false, "dtype": {"class_name": "DTypePolicy", "config": {"name": "float32"}, "shared_object_id": 140251169567616}, "filters": 120, "kernel_size": [1, 1], "strides": [1, 1], "padding": "same", "data_format": "channels_last", "dilation_rate": [1, 1], "groups": 1, "activation": "linear", "use_bias": true, "kernel_initializer": {"class_name": "GlorotUniform", "config": {"seed": null}}, "bias_initializer": {"class_name": "Zeros", "config": {}}, "kernel_regularizer": null, "bias_regularizer": null, "activity_regularizer": null, "kernel_constraint": null, "bias_constraint": null}, "build_config": {"input_shape": [null, 1, 1, 32]}, "name": "expanded_conv_5_squeeze_excite_conv_1", "inbound_nodes": [{"args": [{"class_name": "__keras_tensor__", "config": {"shape": [null, 1, 1, 32], "dtype": "float32", "keras_history": ["expanded_conv_5_squeeze_excite_relu", 0, 0]}}], "kwargs": {}}]}, {"class_name": "Add", "config": {"name": "add_2"}, "name": "add_2", "inbound_nodes": [{"args": [{"class_name": "__keras_tensor__", "config": {"shape": [null, 1, 1, 120], "dtype": "float32", "keras_history": ["expanded_conv_5_squeeze_excite_conv_1", 0, 0]}}, 3.0], "kwargs": {}}]}, {"class_name": "ReLU", "config": {"name": "re_lu_13", "trainable": false, "dtype": {"class_name": "DTypePolicy", "config": {"name": "float32"}, "shared_object_id": 140251169567616}, "max_value": 6.0, "negative_slope": 0.0, "threshold": 0.0}, "name": "re_lu_13", "inbound_nodes": [{"args": [{"class_name": "__keras_tensor__", "config": {"shape": [null, 1, 1, 120], "dtype": "float32", "keras_history": ["add_2", 0, 0]}}], "kwargs": {}}]}, {"class_name": "Multiply", "config": {"name": "multiply_2"}, "name": "multiply_2", "inbound_nodes": [{"args": [{"class_name": "__keras_tensor__", "config": {"shape": [null, 1, 1, 120], "dtype": "float32", "keras_history": ["re_lu_13", 0, 0]}}, 0.16666666666666666], "kwargs": {}}]}, {"class_name": "Multiply", "config": {"name": "expanded_conv_5_squeeze_excite_mul", "trainable": false, "dtype": {"class_name": "DTypePolicy", "config": {"name": "float32"}, "shared_object_id": 140251169567616}}, "build_config": {"input_shape": [[null, 28, 28, 120], [null, 1, 1, 120]]}, "name": "expanded_conv_5_squeeze_excite_mul", "inbound_nodes": [{"args": [[{"class_name": "__keras_tensor__", "config": {"shape": [null, 28, 28, 120], "dtype": "float32", "keras_history": ["re_lu_12", 0, 0]}}, {"class_name": "__keras_tensor__", "config": {"shape": [null, 1, 1, 120], "dtype": "float32", "keras_history": ["multiply_2", 0, 0]}}]], "kwargs": {}}]}, {"class_name": "Conv2D", "config": {"name": "expanded_conv_5_project", "trainable": false, "dtype": {"class_name": "DTypePolicy", "config": {"name": "float32"}, "shared_object_id": 140251169567616}, "filters": 40, "kernel_size": [1, 1], "strides": [1, 1], "padding": "same", "data_format": "channels_last", "dilation_rate": [1, 1], "groups": 1, "activation": "linear", "use_bias": false, "kernel_initializer": {"class_name": "GlorotUniform", "config": {"seed": null}}, "bias_initializer": {"class_name": "Zeros", "config": {}}, "kernel_regularizer": null, "bias_regularizer": null, "activity_regularizer": null, "kernel_constraint": null, "bias_constraint": null}, "build_config": {"input_shape": [null, 28, 28, 120]}, "name": "expanded_conv_5_project", "inbound_nodes": [{"args": [{"class_name": "__keras_tensor__", "config": {"shape": [null, 28, 28, 120], "dtype": "float32", "keras_history": ["expanded_conv_5_squeeze_excite_mul", 0, 0]}}], "kwargs": {}}]}, {"class_name": "BatchNormalization", "config": {"name": "expanded_conv_5_project_bn", "trainable": false, "dtype": {"class_name": "DTypePolicy", "config": {"name": "float32"}, "shared_object_id": 140251169567616}, "axis": -1, "momentum": 0.999, "epsilon": 0.001, "center": true, "scale": true, "beta_initializer": {"class_name": "Zeros", "config": {}}, "gamma_initializer": {"class_name": "Ones", "config": {}}, "moving_mean_initializer": {"class_name": "Zeros", "config": {}}, "moving_variance_initializer": {"class_name": "Ones", "config": {}}, "beta_regularizer": null, "gamma_regularizer": null, "beta_constraint": null, "gamma_constraint": null, "synchronized": false}, "build_config": {"input_shape": [null, 28, 28, 40]}, "name": "expanded_conv_5_project_bn", "inbound_nodes": [{"args": [{"class_name": "__keras_tensor__", "config": {"shape": [null, 28, 28, 40], "dtype": "float32", "keras_history": ["expanded_conv_5_project", 0, 0]}}], "kwargs": {"mask": null}}]}, {"class_name": "Add", "config": {"name": "expanded_conv_5_add", "trainable": false, "dtype": {"class_name": "DTypePolicy", "config": {"name": "float32"}, "shared_object_id": 140251169567616}}, "build_config": {"input_shape": [[null, 28, 28, 40], [null, 28, 28, 40]]}, "name": "expanded_conv_5_add", "inbound_nodes": [{"args": [[{"class_name": "__keras_tensor__", "config": {"shape": [null, 28, 28, 40], "dtype": "float32", "keras_history": ["expanded_conv_4_add", 0, 0]}}, {"class_name": "__keras_tensor__", "config": {"shape": [null, 28, 28, 40], "dtype": "float32", "keras_history": ["expanded_conv_5_project_bn", 0, 0]}}]], "kwargs": {}}]}, {"class_name": "Conv2D", "config": {"name": "expanded_conv_6_expand", "trainable": false, "dtype": {"class_name": "DTypePolicy", "config": {"name": "float32"}, "shared_object_id": 140251169567616}, "filters": 240, "kernel_size": [1, 1], "strides": [1, 1], "padding": "same", "data_format": "channels_last", "dilation_rate": [1, 1], "groups": 1, "activation": "linear", "use_bias": false, "kernel_initializer": {"class_name": "GlorotUniform", "config": {"seed": null}}, "bias_initializer": {"class_name": "Zeros", "config": {}}, "kernel_regularizer": null, "bias_regularizer": null, "activity_regularizer": null, "kernel_constraint": null, "bias_constraint": null}, "build_config": {"input_shape": [null, 28, 28, 40]}, "name": "expanded_conv_6_expand", "inbound_nodes": [{"args": [{"class_name": "__keras_tensor__", "config": {"shape": [null, 28, 28, 40], "dtype": "float32", "keras_history": ["expanded_conv_5_add", 0, 0]}}], "kwargs": {}}]}, {"class_name": "BatchNormalization", "config": {"name": "expanded_conv_6_expand_bn", "trainable": false, "dtype": {"class_name": "DTypePolicy", "config": {"name": "float32"}, "shared_object_id": 140251169567616}, "axis": -1, "momentum": 0.999, "epsilon": 0.001, "center": true, "scale": true, "beta_initializer": {"class_name": "Zeros", "config": {}}, "gamma_initializer": {"class_name": "Ones", "config": {}}, "moving_mean_initializer": {"class_name": "Zeros", "config": {}}, "moving_variance_initializer": {"class_name": "Ones", "config": {}}, "beta_regularizer": null, "gamma_regularizer": null, "beta_constraint": null, "gamma_constraint": null, "synchronized": false}, "build_config": {"input_shape": [null, 28, 28, 240]}, "name": "expanded_conv_6_expand_bn", "inbound_nodes": [{"args": [{"class_name": "__keras_tensor__", "config": {"shape": [null, 28, 28, 240], "dtype": "float32", "keras_history": ["expanded_conv_6_expand", 0, 0]}}], "kwargs": {"mask": null}}]}, {"class_name": "Activation", "config": {"name": "activation_1", "trainable": false, "dtype": {"class_name": "DTypePolicy", "config": {"name": "float32"}, "shared_object_id": 140251169567616}, "activation": "hard_silu"}, "name": "activation_1", "inbound_nodes": [{"args": [{"class_name": "__keras_tensor__", "config": {"shape": [null, 28, 28, 240], "dtype": "float32", "keras_history": ["expanded_conv_6_expand_bn", 0, 0]}}], "kwargs": {}}]}, {"class_name": "ZeroPadding2D", "config": {"name": "expanded_conv_6_depthwise_pad", "trainable": false, "dtype": {"class_name": "DTypePolicy", "config": {"name": "float32"}, "shared_object_id": 140251169567616}, "padding": [[0, 1], [0, 1]], "data_format": "channels_last"}, "build_config": {"input_shape": [null, 28, 28, 240]}, "name": "expanded_conv_6_depthwise_pad", "inbound_nodes": [{"args": [{"class_name": "__keras_tensor__", "config": {"shape": [null, 28, 28, 240], "dtype": "float32", "keras_history": ["activation_1", 0, 0]}}], "kwargs": {}}]}, {"class_name": "DepthwiseConv2D", "config": {"name": "expanded_conv_6_depthwise", "trainable": false, "dtype": {"class_name": "DTypePolicy", "config": {"name": "float32"}, "shared_object_id": 140251169567616}, "depth_multiplier": 1, "kernel_size": [3, 3], "strides": [2, 2], "padding": "valid", "data_format": "channels_last", "dilation_rate": [1, 1], "activation": "linear", "use_bias": false, "depthwise_initializer": {"class_name": "GlorotUniform", "config": {"seed": null}}, "bias_initializer": {"class_name": "Zeros", "config": {}}, "depthwise_regularizer": null, "bias_regularizer": null, "activity_regularizer": null, "depthwise_constraint": null, "bias_constraint": null}, "build_config": {"input_shape": [null, 29, 29, 240]}, "name": "expanded_conv_6_depthwise", "inbound_nodes": [{"args": [{"class_name": "__keras_tensor__", "config": {"shape": [null, 29, 29, 240], "dtype": "float32", "keras_history": ["expanded_conv_6_depthwise_pad", 0, 0]}}], "kwargs": {}}]}, {"class_name": "BatchNormalization", "config": {"name": "expanded_conv_6_depthwise_bn", "trainable": false, "dtype": {"class_name": "DTypePolicy", "config": {"name": "float32"}, "shared_object_id": 140251169567616}, "axis": -1, "momentum": 0.999, "epsilon": 0.001, "center": true, "scale": true, "beta_initializer": {"class_name": "Zeros", "config": {}}, "gamma_initializer": {"class_name": "Ones", "config": {}}, "moving_mean_initializer": {"class_name": "Zeros", "config": {}}, "moving_variance_initializer": {"class_name": "Ones", "config": {}}, "beta_regularizer": null, "gamma_regularizer": null, "beta_constraint": null, "gamma_constraint": null, "synchronized": false}, "build_config": {"input_shape": [null, 14, 14, 240]}, "name": "expanded_conv_6_depthwise_bn", "inbound_nodes": [{"args": [{"class_name": "__keras_tensor__", "config": {"shape": [null, 14, 14, 240], "dtype": "float32", "keras_history": ["expanded_conv_6_depthwise", 0, 0]}}], "kwargs": {"mask": null}}]}, {"class_name": "Activation", "config": {"name": "activation_2", "trainable": false, "dtype": {"class_name": "DTypePolicy", "config": {"name": "float32"}, "shared_object_id": 140251169567616}, "activation": "hard_silu"}, "name": "activation_2", "inbound_nodes": [{"args": [{"class_name": "__keras_tensor__", "config": {"shape": [null, 14, 14, 240], "dtype": "float32", "keras_history": ["expanded_conv_6_depthwise_bn", 0, 0]}}], "kwargs": {}}]}, {"class_name": "Conv2D", "config": {"name": "expanded_conv_6_project", "trainable": false, "dtype": {"class_name": "DTypePolicy", "config": {"name": "float32"}, "shared_object_id": 140251169567616}, "filters": 80, "kernel_size": [1, 1], "strides": [1, 1], "padding": "same", "data_format": "channels_last", "dilation_rate": [1, 1], "groups": 1, "activation": "linear", "use_bias": false, "kernel_initializer": {"class_name": "GlorotUniform", "config": {"seed": null}}, "bias_initializer": {"class_name": "Zeros", "config": {}}, "kernel_regularizer": null, "bias_regularizer": null, "activity_regularizer": null, "kernel_constraint": null, "bias_constraint": null}, "build_config": {"input_shape": [null, 14, 14, 240]}, "name": "expanded_conv_6_project", "inbound_nodes": [{"args": [{"class_name": "__keras_tensor__", "config": {"shape": [null, 14, 14, 240], "dtype": "float32", "keras_history": ["activation_2", 0, 0]}}], "kwargs": {}}]}, {"class_name": "BatchNormalization", "config": {"name": "expanded_conv_6_project_bn", "trainable": false, "dtype": {"class_name": "DTypePolicy", "config": {"name": "float32"}, "shared_object_id": 140251169567616}, "axis": -1, "momentum": 0.999, "epsilon": 0.001, "center": true, "scale": true, "beta_initializer": {"class_name": "Zeros", "config": {}}, "gamma_initializer": {"class_name": "Ones", "config": {}}, "moving_mean_initializer": {"class_name": "Zeros", "config": {}}, "moving_variance_initializer": {"class_name": "Ones", "config": {}}, "beta_regularizer": null, "gamma_regularizer": null, "beta_constraint": null, "gamma_constraint": null, "synchronized": false}, "build_config": {"input_shape": [null, 14, 14, 80]}, "name": "expanded_conv_6_project_bn", "inbound_nodes": [{"args": [{"class_name": "__keras_tensor__", "config": {"shape": [null, 14, 14, 80], "dtype": "float32", "keras_history": ["expanded_conv_6_project", 0, 0]}}], "kwargs": {"mask": null}}]}, {"class_name": "Conv2D", "config": {"name": "expanded_conv_7_expand", "trainable": false, "dtype": {"class_name": "DTypePolicy", "config": {"name": "float32"}, "shared_object_id": 140251169567616}, "filters": 200, "kernel_size": [1, 1], "strides": [1, 1], "padding": "same", "data_format": "channels_last", "dilation_rate": [1, 1], "groups": 1, "activation": "linear", "use_bias": false, "kernel_initializer": {"class_name": "GlorotUniform", "config": {"seed": null}}, "bias_initializer": {"class_name": "Zeros", "config": {}}, "kernel_regularizer": null, "bias_regularizer": null, "activity_regularizer": null, "kernel_constraint": null, "bias_constraint": null}, "build_config": {"input_shape": [null, 14, 14, 80]}, "name": "expanded_conv_7_expand", "inbound_nodes": [{"args": [{"class_name": "__keras_tensor__", "config": {"shape": [null, 14, 14, 80], "dtype": "float32", "keras_history": ["expanded_conv_6_project_bn", 0, 0]}}], "kwargs": {}}]}, {"class_name": "BatchNormalization", "config": {"name": "expanded_conv_7_expand_bn", "trainable": false, "dtype": {"class_name": "DTypePolicy", "config": {"name": "float32"}, "shared_object_id": 140251169567616}, "axis": -1, "momentum": 0.999, "epsilon": 0.001, "center": true, "scale": true, "beta_initializer": {"class_name": "Zeros", "config": {}}, "gamma_initializer": {"class_name": "Ones", "config": {}}, "moving_mean_initializer": {"class_name": "Zeros", "config": {}}, "moving_variance_initializer": {"class_name": "Ones", "config": {}}, "beta_regularizer": null, "gamma_regularizer": null, "beta_constraint": null, "gamma_constraint": null, "synchronized": false}, "build_config": {"input_shape": [null, 14, 14, 200]}, "name": "expanded_conv_7_expand_bn", "inbound_nodes": [{"args": [{"class_name": "__keras_tensor__", "config": {"shape": [null, 14, 14, 200], "dtype": "float32", "keras_history": ["expanded_conv_7_expand", 0, 0]}}], "kwargs": {"mask": null}}]}, {"class_name": "Activation", "config": {"name": "activation_3", "trainable": false, "dtype": {"class_name": "DTypePolicy", "config": {"name": "float32"}, "shared_object_id": 140251169567616}, "activation": "hard_silu"}, "name": "activation_3", "inbound_nodes": [{"args": [{"class_name": "__keras_tensor__", "config": {"shape": [null, 14, 14, 200], "dtype": "float32", "keras_history": ["expanded_conv_7_expand_bn", 0, 0]}}], "kwargs": {}}]}, {"class_name": "DepthwiseConv2D", "config": {"name": "expanded_conv_7_depthwise", "trainable": false, "dtype": {"class_name": "DTypePolicy", "config": {"name": "float32"}, "shared_object_id": 140251169567616}, "depth_multiplier": 1, "kernel_size": [3, 3], "strides": [1, 1], "padding": "same", "data_format": "channels_last", "dilation_rate": [1, 1], "activation": "linear", "use_bias": false, "depthwise_initializer": {"class_name": "GlorotUniform", "config": {"seed": null}}, "bias_initializer": {"class_name": "Zeros", "config": {}}, "depthwise_regularizer": null, "bias_regularizer": null, "activity_regularizer": null, "depthwise_constraint": null, "bias_constraint": null}, "build_config": {"input_shape": [null, 14, 14, 200]}, "name": "expanded_conv_7_depthwise", "inbound_nodes": [{"args": [{"class_name": "__keras_tensor__", "config": {"shape": [null, 14, 14, 200], "dtype": "float32", "keras_history": ["activation_3", 0, 0]}}], "kwargs": {}}]}, {"class_name": "BatchNormalization", "config": {"name": "expanded_conv_7_depthwise_bn", "trainable": false, "dtype": {"class_name": "DTypePolicy", "config": {"name": "float32"}, "shared_object_id": 140251169567616}, "axis": -1, "momentum": 0.999, "epsilon": 0.001, "center": true, "scale": true, "beta_initializer": {"class_name": "Zeros", "config": {}}, "gamma_initializer": {"class_name": "Ones", "config": {}}, "moving_mean_initializer": {"class_name": "Zeros", "config": {}}, "moving_variance_initializer": {"class_name": "Ones", "config": {}}, "beta_regularizer": null, "gamma_regularizer": null, "beta_constraint": null, "gamma_constraint": null, "synchronized": false}, "build_config": {"input_shape": [null, 14, 14, 200]}, "name": "expanded_conv_7_depthwise_bn", "inbound_nodes": [{"args": [{"class_name": "__keras_tensor__", "config": {"shape": [null, 14, 14, 200], "dtype": "float32", "keras_history": ["expanded_conv_7_depthwise", 0, 0]}}], "kwargs": {"mask": null}}]}, {"class_name": "Activation", "config": {"name": "activation_4", "trainable": false, "dtype": {"class_name": "DTypePolicy", "config": {"name": "float32"}, "shared_object_id": 140251169567616}, "activation": "hard_silu"}, "name": "activation_4", "inbound_nodes": [{"args": [{"class_name": "__keras_tensor__", "config": {"shape": [null, 14, 14, 200], "dtype": "float32", "keras_history": ["expanded_conv_7_depthwise_bn", 0, 0]}}], "kwargs": {}}]}, {"class_name": "Conv2D", "config": {"name": "expanded_conv_7_project", "trainable": false, "dtype": {"class_name": "DTypePolicy", "config": {"name": "float32"}, "shared_object_id": 140251169567616}, "filters": 80, "kernel_size": [1, 1], "strides": [1, 1], "padding": "same", "data_format": "channels_last", "dilation_rate": [1, 1], "groups": 1, "activation": "linear", "use_bias": false, "kernel_initializer": {"class_name": "GlorotUniform", "config": {"seed": null}}, "bias_initializer": {"class_name": "Zeros", "config": {}}, "kernel_regularizer": null, "bias_regularizer": null, "activity_regularizer": null, "kernel_constraint": null, "bias_constraint": null}, "build_config": {"input_shape": [null, 14, 14, 200]}, "name": "expanded_conv_7_project", "inbound_nodes": [{"args": [{"class_name": "__keras_tensor__", "config": {"shape": [null, 14, 14, 200], "dtype": "float32", "keras_history": ["activation_4", 0, 0]}}], "kwargs": {}}]}, {"class_name": "BatchNormalization", "config": {"name": "expanded_conv_7_project_bn", "trainable": false, "dtype": {"class_name": "DTypePolicy", "config": {"name": "float32"}, "shared_object_id": 140251169567616}, "axis": -1, "momentum": 0.999, "epsilon": 0.001, "center": true, "scale": true, "beta_initializer": {"class_name": "Zeros", "config": {}}, "gamma_initializer": {"class_name": "Ones", "config": {}}, "moving_mean_initializer": {"class_name": "Zeros", "config": {}}, "moving_variance_initializer": {"class_name": "Ones", "config": {}}, "beta_regularizer": null, "gamma_regularizer": null, "beta_constraint": null, "gamma_constraint": null, "synchronized": false}, "build_config": {"input_shape": [null, 14, 14, 80]}, "name": "expanded_conv_7_project_bn", "inbound_nodes": [{"args": [{"class_name": "__keras_tensor__", "config": {"shape": [null, 14, 14, 80], "dtype": "float32", "keras_history": ["expanded_conv_7_project", 0, 0]}}], "kwargs": {"mask": null}}]}, {"class_name": "Add", "config": {"name": "expanded_conv_7_add", "trainable": false, "dtype": {"class_name": "DTypePolicy", "config": {"name": "float32"}, "shared_object_id": 140251169567616}}, "build_config": {"input_shape": [[null, 14, 14, 80], [null, 14, 14, 80]]}, "name": "expanded_conv_7_add", "inbound_nodes": [{"args": [[{"class_name": "__keras_tensor__", "config": {"shape": [null, 14, 14, 80], "dtype": "float32", "keras_history": ["expanded_conv_6_project_bn", 0, 0]}}, {"class_name": "__keras_tensor__", "config": {"shape": [null, 14, 14, 80], "dtype": "float32", "keras_history": ["expanded_conv_7_project_bn", 0, 0]}}]], "kwargs": {}}]}, {"class_name": "Conv2D", "config": {"name": "expanded_conv_8_expand", "trainable": false, "dtype": {"class_name": "DTypePolicy", "config": {"name": "float32"}, "shared_object_id": 140251169567616}, "filters": 184, "kernel_size": [1, 1], "strides": [1, 1], "padding": "same", "data_format": "channels_last", "dilation_rate": [1, 1], "groups": 1, "activation": "linear", "use_bias": false, "kernel_initializer": {"class_name": "GlorotUniform", "config": {"seed": null}}, "bias_initializer": {"class_name": "Zeros", "config": {}}, "kernel_regularizer": null, "bias_regularizer": null, "activity_regularizer": null, "kernel_constraint": null, "bias_constraint": null}, "build_config": {"input_shape": [null, 14, 14, 80]}, "name": "expanded_conv_8_expand", "inbound_nodes": [{"args": [{"class_name": "__keras_tensor__", "config": {"shape": [null, 14, 14, 80], "dtype": "float32", "keras_history": ["expanded_conv_7_add", 0, 0]}}], "kwargs": {}}]}, {"class_name": "BatchNormalization", "config": {"name": "expanded_conv_8_expand_bn", "trainable": false, "dtype": {"class_name": "DTypePolicy", "config": {"name": "float32"}, "shared_object_id": 140251169567616}, "axis": -1, "momentum": 0.999, "epsilon": 0.001, "center": true, "scale": true, "beta_initializer": {"class_name": "Zeros", "config": {}}, "gamma_initializer": {"class_name": "Ones", "config": {}}, "moving_mean_initializer": {"class_name": "Zeros", "config": {}}, "moving_variance_initializer": {"class_name": "Ones", "config": {}}, "beta_regularizer": null, "gamma_regularizer": null, "beta_constraint": null, "gamma_constraint": null, "synchronized": false}, "build_config": {"input_shape": [null, 14, 14, 184]}, "name": "expanded_conv_8_expand_bn", "inbound_nodes": [{"args": [{"class_name": "__keras_tensor__", "config": {"shape": [null, 14, 14, 184], "dtype": "float32", "keras_history": ["expanded_conv_8_expand", 0, 0]}}], "kwargs": {"mask": null}}]}, {"class_name": "Activation", "config": {"name": "activation_5", "trainable": false, "dtype": {"class_name": "DTypePolicy", "config": {"name": "float32"}, "shared_object_id": 140251169567616}, "activation": "hard_silu"}, "name": "activation_5", "inbound_nodes": [{"args": [{"class_name": "__keras_tensor__", "config": {"shape": [null, 14, 14, 184], "dtype": "float32", "keras_history": ["expanded_conv_8_expand_bn", 0, 0]}}], "kwargs": {}}]}, {"class_name": "DepthwiseConv2D", "config": {"name": "expanded_conv_8_depthwise", "trainable": false, "dtype": {"class_name": "DTypePolicy", "config": {"name": "float32"}, "shared_object_id": 140251169567616}, "depth_multiplier": 1, "kernel_size": [3, 3], "strides": [1, 1], "padding": "same", "data_format": "channels_last", "dilation_rate": [1, 1], "activation": "linear", "use_bias": false, "depthwise_initializer": {"class_name": "GlorotUniform", "config": {"seed": null}}, "bias_initializer": {"class_name": "Zeros", "config": {}}, "depthwise_regularizer": null, "bias_regularizer": null, "activity_regularizer": null, "depthwise_constraint": null, "bias_constraint": null}, "build_config": {"input_shape": [null, 14, 14, 184]}, "name": "expanded_conv_8_depthwise", "inbound_nodes": [{"args": [{"class_name": "__keras_tensor__", "config": {"shape": [null, 14, 14, 184], "dtype": "float32", "keras_history": ["activation_5", 0, 0]}}], "kwargs": {}}]}, {"class_name": "BatchNormalization", "config": {"name": "expanded_conv_8_depthwise_bn", "trainable": false, "dtype": {"class_name": "DTypePolicy", "config": {"name": "float32"}, "shared_object_id": 140251169567616}, "axis": -1, "momentum": 0.999, "epsilon": 0.001, "center": true, "scale": true, "beta_initializer": {"class_name": "Zeros", "config": {}}, "gamma_initializer": {"class_name": "Ones", "config": {}}, "moving_mean_initializer": {"class_name": "Zeros", "config": {}}, "moving_variance_initializer": {"class_name": "Ones", "config": {}}, "beta_regularizer": null, "gamma_regularizer": null, "beta_constraint": null, "gamma_constraint": null, "synchronized": false}, "build_config": {"input_shape": [null, 14, 14, 184]}, "name": "expanded_conv_8_depthwise_bn", "inbound_nodes": [{"args": [{"class_name": "__keras_tensor__", "config": {"shape": [null, 14, 14, 184], "dtype": "float32", "keras_history": ["expanded_conv_8_depthwise", 0, 0]}}], "kwargs": {"mask": null}}]}, {"class_name": "Activation", "config": {"name": "activation_6", "trainable": false, "dtype": {"class_name": "DTypePolicy", "config": {"name": "float32"}, "shared_object_id": 140251169567616}, "activation": "hard_silu"}, "name": "activation_6", "inbound_nodes": [{"args": [{"class_name": "__keras_tensor__", "config": {"shape": [null, 14, 14, 184], "dtype": "float32", "keras_history": ["expanded_conv_8_depthwise_bn", 0, 0]}}], "kwargs": {}}]}, {"class_name": "Conv2D", "config": {"name": "expanded_conv_8_project", "trainable": false, "dtype": {"class_name": "DTypePolicy", "config": {"name": "float32"}, "shared_object_id": 140251169567616}, "filters": 80, "kernel_size": [1, 1], "strides": [1, 1], "padding": "same", "data_format": "channels_last", "dilation_rate": [1, 1], "groups": 1, "activation": "linear", "use_bias": false, "kernel_initializer": {"class_name": "GlorotUniform", "config": {"seed": null}}, "bias_initializer": {"class_name": "Zeros", "config": {}}, "kernel_regularizer": null, "bias_regularizer": null, "activity_regularizer": null, "kernel_constraint": null, "bias_constraint": null}, "build_config": {"input_shape": [null, 14, 14, 184]}, "name": "expanded_conv_8_project", "inbound_nodes": [{"args": [{"class_name": "__keras_tensor__", "config": {"shape": [null, 14, 14, 184], "dtype": "float32", "keras_history": ["activation_6", 0, 0]}}], "kwargs": {}}]}, {"class_name": "BatchNormalization", "config": {"name": "expanded_conv_8_project_bn", "trainable": false, "dtype": {"class_name": "DTypePolicy", "config": {"name": "float32"}, "shared_object_id": 140251169567616}, "axis": -1, "momentum": 0.999, "epsilon": 0.001, "center": true, "scale": true, "beta_initializer": {"class_name": "Zeros", "config": {}}, "gamma_initializer": {"class_name": "Ones", "config": {}}, "moving_mean_initializer": {"class_name": "Zeros", "config": {}}, "moving_variance_initializer": {"class_name": "Ones", "config": {}}, "beta_regularizer": null, "gamma_regularizer": null, "beta_constraint": null, "gamma_constraint": null, "synchronized": false}, "build_config": {"input_shape": [null, 14, 14, 80]}, "name": "expanded_conv_8_project_bn", "inbound_nodes": [{"args": [{"class_name": "__keras_tensor__", "config": {"shape": [null, 14, 14, 80], "dtype": "float32", "keras_history": ["expanded_conv_8_project", 0, 0]}}], "kwargs": {"mask": null}}]}, {"class_name": "Add", "config": {"name": "expanded_conv_8_add", "trainable": false, "dtype": {"class_name": "DTypePolicy", "config": {"name": "float32"}, "shared_object_id": 140251169567616}}, "build_config": {"input_shape": [[null, 14, 14, 80], [null, 14, 14, 80]]}, "name": "expanded_conv_8_add", "inbound_nodes": [{"args": [[{"class_name": "__keras_tensor__", "config": {"shape": [null, 14, 14, 80], "dtype": "float32", "keras_history": ["expanded_conv_7_add", 0, 0]}}, {"class_name": "__keras_tensor__", "config": {"shape": [null, 14, 14, 80], "dtype": "float32", "keras_history": ["expanded_conv_8_project_bn", 0, 0]}}]], "kwargs": {}}]}, {"class_name": "Conv2D", "config": {"name": "expanded_conv_9_expand", "trainable": false, "dtype": {"class_name": "DTypePolicy", "config": {"name": "float32"}, "shared_object_id": 140251169567616}, "filters": 184, "kernel_size": [1, 1], "strides": [1, 1], "padding": "same", "data_format": "channels_last", "dilation_rate": [1, 1], "groups": 1, "activation": "linear", "use_bias": false, "kernel_initializer": {"class_name": "GlorotUniform", "config": {"seed": null}}, "bias_initializer": {"class_name": "Zeros", "config": {}}, "kernel_regularizer": null, "bias_regularizer": null, "activity_regularizer": null, "kernel_constraint": null, "bias_constraint": null}, "build_config": {"input_shape": [null, 14, 14, 80]}, "name": "expanded_conv_9_expand", "inbound_nodes": [{"args": [{"class_name": "__keras_tensor__", "config": {"shape": [null, 14, 14, 80], "dtype": "float32", "keras_history": ["expanded_conv_8_add", 0, 0]}}], "kwargs": {}}]}, {"class_name": "BatchNormalization", "config": {"name": "expanded_conv_9_expand_bn", "trainable": false, "dtype": {"class_name": "DTypePolicy", "config": {"name": "float32"}, "shared_object_id": 140251169567616}, "axis": -1, "momentum": 0.999, "epsilon": 0.001, "center": true, "scale": true, "beta_initializer": {"class_name": "Zeros", "config": {}}, "gamma_initializer": {"class_name": "Ones", "config": {}}, "moving_mean_initializer": {"class_name": "Zeros", "config": {}}, "moving_variance_initializer": {"class_name": "Ones", "config": {}}, "beta_regularizer": null, "gamma_regularizer": null, "beta_constraint": null, "gamma_constraint": null, "synchronized": false}, "build_config": {"input_shape": [null, 14, 14, 184]}, "name": "expanded_conv_9_expand_bn", "inbound_nodes": [{"args": [{"class_name": "__keras_tensor__", "config": {"shape": [null, 14, 14, 184], "dtype": "float32", "keras_history": ["expanded_conv_9_expand", 0, 0]}}], "kwargs": {"mask": null}}]}, {"class_name": "Activation", "config": {"name": "activation_7", "trainable": false, "dtype": {"class_name": "DTypePolicy", "config": {"name": "float32"}, "shared_object_id": 140251169567616}, "activation": "hard_silu"}, "name": "activation_7", "inbound_nodes": [{"args": [{"class_name": "__keras_tensor__", "config": {"shape": [null, 14, 14, 184], "dtype": "float32", "keras_history": ["expanded_conv_9_expand_bn", 0, 0]}}], "kwargs": {}}]}, {"class_name": "DepthwiseConv2D", "config": {"name": "expanded_conv_9_depthwise", "trainable": false, "dtype": {"class_name": "DTypePolicy", "config": {"name": "float32"}, "shared_object_id": 140251169567616}, "depth_multiplier": 1, "kernel_size": [3, 3], "strides": [1, 1], "padding": "same", "data_format": "channels_last", "dilation_rate": [1, 1], "activation": "linear", "use_bias": false, "depthwise_initializer": {"class_name": "GlorotUniform", "config": {"seed": null}}, "bias_initializer": {"class_name": "Zeros", "config": {}}, "depthwise_regularizer": null, "bias_regularizer": null, "activity_regularizer": null, "depthwise_constraint": null, "bias_constraint": null}, "build_config": {"input_shape": [null, 14, 14, 184]}, "name": "expanded_conv_9_depthwise", "inbound_nodes": [{"args": [{"class_name": "__keras_tensor__", "config": {"shape": [null, 14, 14, 184], "dtype": "float32", "keras_history": ["activation_7", 0, 0]}}], "kwargs": {}}]}, {"class_name": "BatchNormalization", "config": {"name": "expanded_conv_9_depthwise_bn", "trainable": false, "dtype": {"class_name": "DTypePolicy", "config": {"name": "float32"}, "shared_object_id": 140251169567616}, "axis": -1, "momentum": 0.999, "epsilon": 0.001, "center": true, "scale": true, "beta_initializer": {"class_name": "Zeros", "config": {}}, "gamma_initializer": {"class_name": "Ones", "config": {}}, "moving_mean_initializer": {"class_name": "Zeros", "config": {}}, "moving_variance_initializer": {"class_name": "Ones", "config": {}}, "beta_regularizer": null, "gamma_regularizer": null, "beta_constraint": null, "gamma_constraint": null, "synchronized": false}, "build_config": {"input_shape": [null, 14, 14, 184]}, "name": "expanded_conv_9_depthwise_bn", "inbound_nodes": [{"args": [{"class_name": "__keras_tensor__", "config": {"shape": [null, 14, 14, 184], "dtype": "float32", "keras_history": ["expanded_conv_9_depthwise", 0, 0]}}], "kwargs": {"mask": null}}]}, {"class_name": "Activation", "config": {"name": "activation_8", "trainable": false, "dtype": {"class_name": "DTypePolicy", "config": {"name": "float32"}, "shared_object_id": 140251169567616}, "activation": "hard_silu"}, "name": "activation_8", "inbound_nodes": [{"args": [{"class_name": "__keras_tensor__", "config": {"shape": [null, 14, 14, 184], "dtype": "float32", "keras_history": ["expanded_conv_9_depthwise_bn", 0, 0]}}], "kwargs": {}}]}, {"class_name": "Conv2D", "config": {"name": "expanded_conv_9_project", "trainable": false, "dtype": {"class_name": "DTypePolicy", "config": {"name": "float32"}, "shared_object_id": 140251169567616}, "filters": 80, "kernel_size": [1, 1], "strides": [1, 1], "padding": "same", "data_format": "channels_last", "dilation_rate": [1, 1], "groups": 1, "activation": "linear", "use_bias": false, "kernel_initializer": {"class_name": "GlorotUniform", "config": {"seed": null}}, "bias_initializer": {"class_name": "Zeros", "config": {}}, "kernel_regularizer": null, "bias_regularizer": null, "activity_regularizer": null, "kernel_constraint": null, "bias_constraint": null}, "build_config": {"input_shape": [null, 14, 14, 184]}, "name": "expanded_conv_9_project", "inbound_nodes": [{"args": [{"class_name": "__keras_tensor__", "config": {"shape": [null, 14, 14, 184], "dtype": "float32", "keras_history": ["activation_8", 0, 0]}}], "kwargs": {}}]}, {"class_name": "BatchNormalization", "config": {"name": "expanded_conv_9_project_bn", "trainable": false, "dtype": {"class_name": "DTypePolicy", "config": {"name": "float32"}, "shared_object_id": 140251169567616}, "axis": -1, "momentum": 0.999, "epsilon": 0.001, "center": true, "scale": true, "beta_initializer": {"class_name": "Zeros", "config": {}}, "gamma_initializer": {"class_name": "Ones", "config": {}}, "moving_mean_initializer": {"class_name": "Zeros", "config": {}}, "moving_variance_initializer": {"class_name": "Ones", "config": {}}, "beta_regularizer": null, "gamma_regularizer": null, "beta_constraint": null, "gamma_constraint": null, "synchronized": false}, "build_config": {"input_shape": [null, 14, 14, 80]}, "name": "expanded_conv_9_project_bn", "inbound_nodes": [{"args": [{"class_name": "__keras_tensor__", "config": {"shape": [null, 14, 14, 80], "dtype": "float32", "keras_history": ["expanded_conv_9_project", 0, 0]}}], "kwargs": {"mask": null}}]}, {"class_name": "Add", "config": {"name": "expanded_conv_9_add", "trainable": false, "dtype": {"class_name": "DTypePolicy", "config": {"name": "float32"}, "shared_object_id": 140251169567616}}, "build_config": {"input_shape": [[null, 14, 14, 80], [null, 14, 14, 80]]}, "name": "expanded_conv_9_add", "inbound_nodes": [{"args": [[{"class_name": "__keras_tensor__", "config": {"shape": [null, 14, 14, 80], "dtype": "float32", "keras_history": ["expanded_conv_8_add", 0, 0]}}, {"class_name": "__keras_tensor__", "config": {"shape": [null, 14, 14, 80], "dtype": "float32", "keras_history": ["expanded_conv_9_project_bn", 0, 0]}}]], "kwargs": {}}]}, {"class_name": "Conv2D", "config": {"name": "expanded_conv_10_expand", "trainable": false, "dtype": {"class_name": "DTypePolicy", "config": {"name": "float32"}, "shared_object_id": 140251169567616}, "filters": 480, "kernel_size": [1, 1], "strides": [1, 1], "padding": "same", "data_format": "channels_last", "dilation_rate": [1, 1], "groups": 1, "activation": "linear", "use_bias": false, "kernel_initializer": {"class_name": "GlorotUniform", "config": {"seed": null}}, "bias_initializer": {"class_name": "Zeros", "config": {}}, "kernel_regularizer": null, "bias_regularizer": null, "activity_regularizer": null, "kernel_constraint": null, "bias_constraint": null}, "build_config": {"input_shape": [null, 14, 14, 80]}, "name": "expanded_conv_10_expand", "inbound_nodes": [{"args": [{"class_name": "__keras_tensor__", "config": {"shape": [null, 14, 14, 80], "dtype": "float32", "keras_history": ["expanded_conv_9_add", 0, 0]}}], "kwargs": {}}]}, {"class_name": "BatchNormalization", "config": {"name": "expanded_conv_10_expand_bn", "trainable": false, "dtype": {"class_name": "DTypePolicy", "config": {"name": "float32"}, "shared_object_id": 140251169567616}, "axis": -1, "momentum": 0.999, "epsilon": 0.001, "center": true, "scale": true, "beta_initializer": {"class_name": "Zeros", "config": {}}, "gamma_initializer": {"class_name": "Ones", "config": {}}, "moving_mean_initializer": {"class_name": "Zeros", "config": {}}, "moving_variance_initializer": {"class_name": "Ones", "config": {}}, "beta_regularizer": null, "gamma_regularizer": null, "beta_constraint": null, "gamma_constraint": null, "synchronized": false}, "build_config": {"input_shape": [null, 14, 14, 480]}, "name": "expanded_conv_10_expand_bn", "inbound_nodes": [{"args": [{"class_name": "__keras_tensor__", "config": {"shape": [null, 14, 14, 480], "dtype": "float32", "keras_history": ["expanded_conv_10_expand", 0, 0]}}], "kwargs": {"mask": null}}]}, {"class_name": "Activation", "config": {"name": "activation_9", "trainable": false, "dtype": {"class_name": "DTypePolicy", "config": {"name": "float32"}, "shared_object_id": 140251169567616}, "activation": "hard_silu"}, "name": "activation_9", "inbound_nodes": [{"args": [{"class_name": "__keras_tensor__", "config": {"shape": [null, 14, 14, 480], "dtype": "float32", "keras_history": ["expanded_conv_10_expand_bn", 0, 0]}}], "kwargs": {}}]}, {"class_name": "DepthwiseConv2D", "config": {"name": "expanded_conv_10_depthwise", "trainable": false, "dtype": {"class_name": "DTypePolicy", "config": {"name": "float32"}, "shared_object_id": 140251169567616}, "depth_multiplier": 1, "kernel_size": [3, 3], "strides": [1, 1], "padding": "same", "data_format": "channels_last", "dilation_rate": [1, 1], "activation": "linear", "use_bias": false, "depthwise_initializer": {"class_name": "GlorotUniform", "config": {"seed": null}}, "bias_initializer": {"class_name": "Zeros", "config": {}}, "depthwise_regularizer": null, "bias_regularizer": null, "activity_regularizer": null, "depthwise_constraint": null, "bias_constraint": null}, "build_config": {"input_shape": [null, 14, 14, 480]}, "name": "expanded_conv_10_depthwise", "inbound_nodes": [{"args": [{"class_name": "__keras_tensor__", "config": {"shape": [null, 14, 14, 480], "dtype": "float32", "keras_history": ["activation_9", 0, 0]}}], "kwargs": {}}]}, {"class_name": "BatchNormalization", "config": {"name": "expanded_conv_10_depthwise_bn", "trainable": false, "dtype": {"class_name": "DTypePolicy", "config": {"name": "float32"}, "shared_object_id": 140251169567616}, "axis": -1, "momentum": 0.999, "epsilon": 0.001, "center": true, "scale": true, "beta_initializer": {"class_name": "Zeros", "config": {}}, "gamma_initializer": {"class_name": "Ones", "config": {}}, "moving_mean_initializer": {"class_name": "Zeros", "config": {}}, "moving_variance_initializer": {"class_name": "Ones", "config": {}}, "beta_regularizer": null, "gamma_regularizer": null, "beta_constraint": null, "gamma_constraint": null, "synchronized": false}, "build_config": {"input_shape": [null, 14, 14, 480]}, "name": "expanded_conv_10_depthwise_bn", "inbound_nodes": [{"args": [{"class_name": "__keras_tensor__", "config": {"shape": [null, 14, 14, 480], "dtype": "float32", "keras_history": ["expanded_conv_10_depthwise", 0, 0]}}], "kwargs": {"mask": null}}]}, {"class_name": "Activation", "config": {"name": "activation_10", "trainable": false, "dtype": {"class_name": "DTypePolicy", "config": {"name": "float32"}, "shared_object_id": 140251169567616}, "activation": "hard_silu"}, "name": "activation_10", "inbound_nodes": [{"args": [{"class_name": "__keras_tensor__", "config": {"shape": [null, 14, 14, 480], "dtype": "float32", "keras_history": ["expanded_conv_10_depthwise_bn", 0, 0]}}], "kwargs": {}}]}, {"class_name": "GlobalAveragePooling2D", "config": {"name": "expanded_conv_10_squeeze_excite_avg_pool", "trainable": false, "dtype": {"class_name": "DTypePolicy", "config": {"name": "float32"}, "shared_object_id": 140251169567616}, "data_format": "channels_last", "keepdims": true}, "name": "expanded_conv_10_squeeze_excite_avg_pool", "inbound_nodes": [{"args": [{"class_name": "__keras_tensor__", "config": {"shape": [null, 14, 14, 480], "dtype": "float32", "keras_history": ["activation_10", 0, 0]}}], "kwargs": {}}]}, {"class_name": "Conv2D", "config": {"name": "expanded_conv_10_squeeze_excite_conv", "trainable": false, "dtype": {"class_name": "DTypePolicy", "config": {"name": "float32"}, "shared_object_id": 140251169567616}, "filters": 120, "kernel_size": [1, 1], "strides": [1, 1], "padding": "same", "data_format": "channels_last", "dilation_rate": [1, 1], "groups": 1, "activation": "linear", "use_bias": true, "kernel_initializer": {"class_name": "GlorotUniform", "config": {"seed": null}}, "bias_initializer": {"class_name": "Zeros", "config": {}}, "kernel_regularizer": null, "bias_regularizer": null, "activity_regularizer": null, "kernel_constraint": null, "bias_constraint": null}, "build_config": {"input_shape": [null, 1, 1, 480]}, "name": "expanded_conv_10_squeeze_excite_conv", "inbound_nodes": [{"args": [{"class_name": "__keras_tensor__", "config": {"shape": [null, 1, 1, 480], "dtype": "float32", "keras_history": ["expanded_conv_10_squeeze_excite_avg_pool", 0, 0]}}], "kwargs": {}}]}, {"class_name": "ReLU", "config": {"name": "expanded_conv_10_squeeze_excite_relu", "trainable": false, "dtype": {"class_name": "DTypePolicy", "config": {"name": "float32"}, "shared_object_id": 140251169567616}, "max_value": null, "negative_slope": 0.0, "threshold": 0.0}, "name": "expanded_conv_10_squeeze_excite_relu", "inbound_nodes": [{"args": [{"class_name": "__keras_tensor__", "config": {"shape": [null, 1, 1, 120], "dtype": "float32", "keras_history": ["expanded_conv_10_squeeze_excite_conv", 0, 0]}}], "kwargs": {}}]}, {"class_name": "Conv2D", "config": {"name": "expanded_conv_10_squeeze_excite_conv_1", "trainable": false, "dtype": {"class_name": "DTypePolicy", "config": {"name": "float32"}, "shared_object_id": 140251169567616}, "filters": 480, "kernel_size": [1, 1], "strides": [1, 1], "padding": "same", "data_format": "channels_last", "dilation_rate": [1, 1], "groups": 1, "activation": "linear", "use_bias": true, "kernel_initializer": {"class_name": "GlorotUniform", "config": {"seed": null}}, "bias_initializer": {"class_name": "Zeros", "config": {}}, "kernel_regularizer": null, "bias_regularizer": null, "activity_regularizer": null, "kernel_constraint": null, "bias_constraint": null}, "build_config": {"input_shape": [null, 1, 1, 120]}, "name": "expanded_conv_10_squeeze_excite_conv_1", "inbound_nodes": [{"args": [{"class_name": "__keras_tensor__", "config": {"shape": [null, 1, 1, 120], "dtype": "float32", "keras_history": ["expanded_conv_10_squeeze_excite_relu", 0, 0]}}], "kwargs": {}}]}, {"class_name": "Add", "config": {"name": "add_3"}, "name": "add_3", "inbound_nodes": [{"args": [{"class_name": "__keras_tensor__", "config": {"shape": [null, 1, 1, 480], "dtype": "float32", "keras_history": ["expanded_conv_10_squeeze_excite_conv_1", 0, 0]}}, 3.0], "kwargs": {}}]}, {"class_name": "ReLU", "config": {"name": "re_lu_14", "trainable": false, "dtype": {"class_name": "DTypePolicy", "config": {"name": "float32"}, "shared_object_id": 140251169567616}, "max_value": 6.0, "negative_slope": 0.0, "threshold": 0.0}, "name": "re_lu_14", "inbound_nodes": [{"args": [{"class_name": "__keras_tensor__", "config": {"shape": [null, 1, 1, 480], "dtype": "float32", "keras_history": ["add_3", 0, 0]}}], "kwargs": {}}]}, {"class_name": "Multiply", "config": {"name": "multiply_3"}, "name": "multiply_3", "inbound_nodes": [{"args": [{"class_name": "__keras_tensor__", "config": {"shape": [null, 1, 1, 480], "dtype": "float32", "keras_history": ["re_lu_14", 0, 0]}}, 0.16666666666666666], "kwargs": {}}]}, {"class_name": "Multiply", "config": {"name": "expanded_conv_10_squeeze_excite_mul", "trainable": false, "dtype": {"class_name": "DTypePolicy", "config": {"name": "float32"}, "shared_object_id": 140251169567616}}, "build_config": {"input_shape": [[null, 14, 14, 480], [null, 1, 1, 480]]}, "name": "expanded_conv_10_squeeze_excite_mul", "inbound_nodes": [{"args": [[{"class_name": "__keras_tensor__", "config": {"shape": [null, 14, 14, 480], "dtype": "float32", "keras_history": ["activation_10", 0, 0]}}, {"class_name": "__keras_tensor__", "config": {"shape": [null, 1, 1, 480], "dtype": "float32", "keras_history": ["multiply_3", 0, 0]}}]], "kwargs": {}}]}, {"class_name": "Conv2D", "config": {"name": "expanded_conv_10_project", "trainable": false, "dtype": {"class_name": "DTypePolicy", "config": {"name": "float32"}, "shared_object_id": 140251169567616}, "filters": 112, "kernel_size": [1, 1], "strides": [1, 1], "padding": "same", "data_format": "channels_last", "dilation_rate": [1, 1], "groups": 1, "activation": "linear", "use_bias": false, "kernel_initializer": {"class_name": "GlorotUniform", "config": {"seed": null}}, "bias_initializer": {"class_name": "Zeros", "config": {}}, "kernel_regularizer": null, "bias_regularizer": null, "activity_regularizer": null, "kernel_constraint": null, "bias_constraint": null}, "build_config": {"input_shape": [null, 14, 14, 480]}, "name": "expanded_conv_10_project", "inbound_nodes": [{"args": [{"class_name": "__keras_tensor__", "config": {"shape": [null, 14, 14, 480], "dtype": "float32", "keras_history": ["expanded_conv_10_squeeze_excite_mul", 0, 0]}}], "kwargs": {}}]}, {"class_name": "BatchNormalization", "config": {"name": "expanded_conv_10_project_bn", "trainable": false, "dtype": {"class_name": "DTypePolicy", "config": {"name": "float32"}, "shared_object_id": 140251169567616}, "axis": -1, "momentum": 0.999, "epsilon": 0.001, "center": true, "scale": true, "beta_initializer": {"class_name": "Zeros", "config": {}}, "gamma_initializer": {"class_name": "Ones", "config": {}}, "moving_mean_initializer": {"class_name": "Zeros", "config": {}}, "moving_variance_initializer": {"class_name": "Ones", "config": {}}, "beta_regularizer": null, "gamma_regularizer": null, "beta_constraint": null, "gamma_constraint": null, "synchronized": false}, "build_config": {"input_shape": [null, 14, 14, 112]}, "name": "expanded_conv_10_project_bn", "inbound_nodes": [{"args": [{"class_name": "__keras_tensor__", "config": {"shape": [null, 14, 14, 112], "dtype": "float32", "keras_history": ["expanded_conv_10_project", 0, 0]}}], "kwargs": {"mask": null}}]}, {"class_name": "Conv2D", "config": {"name": "expanded_conv_11_expand", "trainable": false, "dtype": {"class_name": "DTypePolicy", "config": {"name": "float32"}, "shared_object_id": 140251169567616}, "filters": 672, "kernel_size": [1, 1], "strides": [1, 1], "padding": "same", "data_format": "channels_last", "dilation_rate": [1, 1], "groups": 1, "activation": "linear", "use_bias": false, "kernel_initializer": {"class_name": "GlorotUniform", "config": {"seed": null}}, "bias_initializer": {"class_name": "Zeros", "config": {}}, "kernel_regularizer": null, "bias_regularizer": null, "activity_regularizer": null, "kernel_constraint": null, "bias_constraint": null}, "build_config": {"input_shape": [null, 14, 14, 112]}, "name": "expanded_conv_11_expand", "inbound_nodes": [{"args": [{"class_name": "__keras_tensor__", "config": {"shape": [null, 14, 14, 112], "dtype": "float32", "keras_history": ["expanded_conv_10_project_bn", 0, 0]}}], "kwargs": {}}]}, {"class_name": "BatchNormalization", "config": {"name": "expanded_conv_11_expand_bn", "trainable": false, "dtype": {"class_name": "DTypePolicy", "config": {"name": "float32"}, "shared_object_id": 140251169567616}, "axis": -1, "momentum": 0.999, "epsilon": 0.001, "center": true, "scale": true, "beta_initializer": {"class_name": "Zeros", "config": {}}, "gamma_initializer": {"class_name": "Ones", "config": {}}, "moving_mean_initializer": {"class_name": "Zeros", "config": {}}, "moving_variance_initializer": {"class_name": "Ones", "config": {}}, "beta_regularizer": null, "gamma_regularizer": null, "beta_constraint": null, "gamma_constraint": null, "synchronized": false}, "build_config": {"input_shape": [null, 14, 14, 672]}, "name": "expanded_conv_11_expand_bn", "inbound_nodes": [{"args": [{"class_name": "__keras_tensor__", "config": {"shape": [null, 14, 14, 672], "dtype": "float32", "keras_history": ["expanded_conv_11_expand", 0, 0]}}], "kwargs": {"mask": null}}]}, {"class_name": "Activation", "config": {"name": "activation_11", "trainable": false, "dtype": {"class_name": "DTypePolicy", "config": {"name": "float32"}, "shared_object_id": 140251169567616}, "activation": "hard_silu"}, "name": "activation_11", "inbound_nodes": [{"args": [{"class_name": "__keras_tensor__", "config": {"shape": [null, 14, 14, 672], "dtype": "float32", "keras_history": ["expanded_conv_11_expand_bn", 0, 0]}}], "kwargs": {}}]}, {"class_name": "DepthwiseConv2D", "config": {"name": "expanded_conv_11_depthwise", "trainable": false, "dtype": {"class_name": "DTypePolicy", "config": {"name": "float32"}, "shared_object_id": 140251169567616}, "depth_multiplier": 1, "kernel_size": [3, 3], "strides": [1, 1], "padding": "same", "data_format": "channels_last", "dilation_rate": [1, 1], "activation": "linear", "use_bias": false, "depthwise_initializer": {"class_name": "GlorotUniform", "config": {"seed": null}}, "bias_initializer": {"class_name": "Zeros", "config": {}}, "depthwise_regularizer": null, "bias_regularizer": null, "activity_regularizer": null, "depthwise_constraint": null, "bias_constraint": null}, "build_config": {"input_shape": [null, 14, 14, 672]}, "name": "expanded_conv_11_depthwise", "inbound_nodes": [{"args": [{"class_name": "__keras_tensor__", "config": {"shape": [null, 14, 14, 672], "dtype": "float32", "keras_history": ["activation_11", 0, 0]}}], "kwargs": {}}]}, {"class_name": "BatchNormalization", "config": {"name": "expanded_conv_11_depthwise_bn", "trainable": false, "dtype": {"class_name": "DTypePolicy", "config": {"name": "float32"}, "shared_object_id": 140251169567616}, "axis": -1, "momentum": 0.999, "epsilon": 0.001, "center": true, "scale": true, "beta_initializer": {"class_name": "Zeros", "config": {}}, "gamma_initializer": {"class_name": "Ones", "config": {}}, "moving_mean_initializer": {"class_name": "Zeros", "config": {}}, "moving_variance_initializer": {"class_name": "Ones", "config": {}}, "beta_regularizer": null, "gamma_regularizer": null, "beta_constraint": null, "gamma_constraint": null, "synchronized": false}, "build_config": {"input_shape": [null, 14, 14, 672]}, "name": "expanded_conv_11_depthwise_bn", "inbound_nodes": [{"args": [{"class_name": "__keras_tensor__", "config": {"shape": [null, 14, 14, 672], "dtype": "float32", "keras_history": ["expanded_conv_11_depthwise", 0, 0]}}], "kwargs": {"mask": null}}]}, {"class_name": "Activation", "config": {"name": "activation_12", "trainable": false, "dtype": {"class_name": "DTypePolicy", "config": {"name": "float32"}, "shared_object_id": 140251169567616}, "activation": "hard_silu"}, "name": "activation_12", "inbound_nodes": [{"args": [{"class_name": "__keras_tensor__", "config": {"shape": [null, 14, 14, 672], "dtype": "float32", "keras_history": ["expanded_conv_11_depthwise_bn", 0, 0]}}], "kwargs": {}}]}, {"class_name": "GlobalAveragePooling2D", "config": {"name": "expanded_conv_11_squeeze_excite_avg_pool", "trainable": false, "dtype": {"class_name": "DTypePolicy", "config": {"name": "float32"}, "shared_object_id": 140251169567616}, "data_format": "channels_last", "keepdims": true}, "name": "expanded_conv_11_squeeze_excite_avg_pool", "inbound_nodes": [{"args": [{"class_name": "__keras_tensor__", "config": {"shape": [null, 14, 14, 672], "dtype": "float32", "keras_history": ["activation_12", 0, 0]}}], "kwargs": {}}]}, {"class_name": "Conv2D", "config": {"name": "expanded_conv_11_squeeze_excite_conv", "trainable": false, "dtype": {"class_name": "DTypePolicy", "config": {"name": "float32"}, "shared_object_id": 140251169567616}, "filters": 168, "kernel_size": [1, 1], "strides": [1, 1], "padding": "same", "data_format": "channels_last", "dilation_rate": [1, 1], "groups": 1, "activation": "linear", "use_bias": true, "kernel_initializer": {"class_name": "GlorotUniform", "config": {"seed": null}}, "bias_initializer": {"class_name": "Zeros", "config": {}}, "kernel_regularizer": null, "bias_regularizer": null, "activity_regularizer": null, "kernel_constraint": null, "bias_constraint": null}, "build_config": {"input_shape": [null, 1, 1, 672]}, "name": "expanded_conv_11_squeeze_excite_conv", "inbound_nodes": [{"args": [{"class_name": "__keras_tensor__", "config": {"shape": [null, 1, 1, 672], "dtype": "float32", "keras_history": ["expanded_conv_11_squeeze_excite_avg_pool", 0, 0]}}], "kwargs": {}}]}, {"class_name": "ReLU", "config": {"name": "expanded_conv_11_squeeze_excite_relu", "trainable": false, "dtype": {"class_name": "DTypePolicy", "config": {"name": "float32"}, "shared_object_id": 140251169567616}, "max_value": null, "negative_slope": 0.0, "threshold": 0.0}, "name": "expanded_conv_11_squeeze_excite_relu", "inbound_nodes": [{"args": [{"class_name": "__keras_tensor__", "config": {"shape": [null, 1, 1, 168], "dtype": "float32", "keras_history": ["expanded_conv_11_squeeze_excite_conv", 0, 0]}}], "kwargs": {}}]}, {"class_name": "Conv2D", "config": {"name": "expanded_conv_11_squeeze_excite_conv_1", "trainable": false, "dtype": {"class_name": "DTypePolicy", "config": {"name": "float32"}, "shared_object_id": 140251169567616}, "filters": 672, "kernel_size": [1, 1], "strides": [1, 1], "padding": "same", "data_format": "channels_last", "dilation_rate": [1, 1], "groups": 1, "activation": "linear", "use_bias": true, "kernel_initializer": {"class_name": "GlorotUniform", "config": {"seed": null}}, "bias_initializer": {"class_name": "Zeros", "config": {}}, "kernel_regularizer": null, "bias_regularizer": null, "activity_regularizer": null, "kernel_constraint": null, "bias_constraint": null}, "build_config": {"input_shape": [null, 1, 1, 168]}, "name": "expanded_conv_11_squeeze_excite_conv_1", "inbound_nodes": [{"args": [{"class_name": "__keras_tensor__", "config": {"shape": [null, 1, 1, 168], "dtype": "float32", "keras_history": ["expanded_conv_11_squeeze_excite_relu", 0, 0]}}], "kwargs": {}}]}, {"class_name": "Add", "config": {"name": "add_4"}, "name": "add_4", "inbound_nodes": [{"args": [{"class_name": "__keras_tensor__", "config": {"shape": [null, 1, 1, 672], "dtype": "float32", "keras_history": ["expanded_conv_11_squeeze_excite_conv_1", 0, 0]}}, 3.0], "kwargs": {}}]}, {"class_name": "ReLU", "config": {"name": "re_lu_15", "trainable": false, "dtype": {"class_name": "DTypePolicy", "config": {"name": "float32"}, "shared_object_id": 140251169567616}, "max_value": 6.0, "negative_slope": 0.0, "threshold": 0.0}, "name": "re_lu_15", "inbound_nodes": [{"args": [{"class_name": "__keras_tensor__", "config": {"shape": [null, 1, 1, 672], "dtype": "float32", "keras_history": ["add_4", 0, 0]}}], "kwargs": {}}]}, {"class_name": "Multiply", "config": {"name": "multiply_4"}, "name": "multiply_4", "inbound_nodes": [{"args": [{"class_name": "__keras_tensor__", "config": {"shape": [null, 1, 1, 672], "dtype": "float32", "keras_history": ["re_lu_15", 0, 0]}}, 0.16666666666666666], "kwargs": {}}]}, {"class_name": "Multiply", "config": {"name": "expanded_conv_11_squeeze_excite_mul", "trainable": false, "dtype": {"class_name": "DTypePolicy", "config": {"name": "float32"}, "shared_object_id": 140251169567616}}, "build_config": {"input_shape": [[null, 14, 14, 672], [null, 1, 1, 672]]}, "name": "expanded_conv_11_squeeze_excite_mul", "inbound_nodes": [{"args": [[{"class_name": "__keras_tensor__", "config": {"shape": [null, 14, 14, 672], "dtype": "float32", "keras_history": ["activation_12", 0, 0]}}, {"class_name": "__keras_tensor__", "config": {"shape": [null, 1, 1, 672], "dtype": "float32", "keras_history": ["multiply_4", 0, 0]}}]], "kwargs": {}}]}, {"class_name": "Conv2D", "config": {"name": "expanded_conv_11_project", "trainable": false, "dtype": {"class_name": "DTypePolicy", "config": {"name": "float32"}, "shared_object_id": 140251169567616}, "filters": 112, "kernel_size": [1, 1], "strides": [1, 1], "padding": "same", "data_format": "channels_last", "dilation_rate": [1, 1], "groups": 1, "activation": "linear", "use_bias": false, "kernel_initializer": {"class_name": "GlorotUniform", "config": {"seed": null}}, "bias_initializer": {"class_name": "Zeros", "config": {}}, "kernel_regularizer": null, "bias_regularizer": null, "activity_regularizer": null, "kernel_constraint": null, "bias_constraint": null}, "build_config": {"input_shape": [null, 14, 14, 672]}, "name": "expanded_conv_11_project", "inbound_nodes": [{"args": [{"class_name": "__keras_tensor__", "config": {"shape": [null, 14, 14, 672], "dtype": "float32", "keras_history": ["expanded_conv_11_squeeze_excite_mul", 0, 0]}}], "kwargs": {}}]}, {"class_name": "BatchNormalization", "config": {"name": "expanded_conv_11_project_bn", "trainable": false, "dtype": {"class_name": "DTypePolicy", "config": {"name": "float32"}, "shared_object_id": 140251169567616}, "axis": -1, "momentum": 0.999, "epsilon": 0.001, "center": true, "scale": true, "beta_initializer": {"class_name": "Zeros", "config": {}}, "gamma_initializer": {"class_name": "Ones", "config": {}}, "moving_mean_initializer": {"class_name": "Zeros", "config": {}}, "moving_variance_initializer": {"class_name": "Ones", "config": {}}, "beta_regularizer": null, "gamma_regularizer": null, "beta_constraint": null, "gamma_constraint": null, "synchronized": false}, "build_config": {"input_shape": [null, 14, 14, 112]}, "name": "expanded_conv_11_project_bn", "inbound_nodes": [{"args": [{"class_name": "__keras_tensor__", "config": {"shape": [null, 14, 14, 112], "dtype": "float32", "keras_history": ["expanded_conv_11_project", 0, 0]}}], "kwargs": {"mask": null}}]}, {"class_name": "Add", "config": {"name": "expanded_conv_11_add", "trainable": false, "dtype": {"class_name": "DTypePolicy", "config": {"name": "float32"}, "shared_object_id": 140251169567616}}, "build_config": {"input_shape": [[null, 14, 14, 112], [null, 14, 14, 112]]}, "name": "expanded_conv_11_add", "inbound_nodes": [{"args": [[{"class_name": "__keras_tensor__", "config": {"shape": [null, 14, 14, 112], "dtype": "float32", "keras_history": ["expanded_conv_10_project_bn", 0, 0]}}, {"class_name": "__keras_tensor__", "config": {"shape": [null, 14, 14, 112], "dtype": "float32", "keras_history": ["expanded_conv_11_project_bn", 0, 0]}}]], "kwargs": {}}]}, {"class_name": "Conv2D", "config": {"name": "expanded_conv_12_expand", "trainable": false, "dtype": {"class_name": "DTypePolicy", "config": {"name": "float32"}, "shared_object_id": 140251169567616}, "filters": 672, "kernel_size": [1, 1], "strides": [1, 1], "padding": "same", "data_format": "channels_last", "dilation_rate": [1, 1], "groups": 1, "activation": "linear", "use_bias": false, "kernel_initializer": {"class_name": "GlorotUniform", "config": {"seed": null}}, "bias_initializer": {"class_name": "Zeros", "config": {}}, "kernel_regularizer": null, "bias_regularizer": null, "activity_regularizer": null, "kernel_constraint": null, "bias_constraint": null}, "build_config": {"input_shape": [null, 14, 14, 112]}, "name": "expanded_conv_12_expand", "inbound_nodes": [{"args": [{"class_name": "__keras_tensor__", "config": {"shape": [null, 14, 14, 112], "dtype": "float32", "keras_history": ["expanded_conv_11_add", 0, 0]}}], "kwargs": {}}]}, {"class_name": "BatchNormalization", "config": {"name": "expanded_conv_12_expand_bn", "trainable": false, "dtype": {"class_name": "DTypePolicy", "config": {"name": "float32"}, "shared_object_id": 140251169567616}, "axis": -1, "momentum": 0.999, "epsilon": 0.001, "center": true, "scale": true, "beta_initializer": {"class_name": "Zeros", "config": {}}, "gamma_initializer": {"class_name": "Ones", "config": {}}, "moving_mean_initializer": {"class_name": "Zeros", "config": {}}, "moving_variance_initializer": {"class_name": "Ones", "config": {}}, "beta_regularizer": null, "gamma_regularizer": null, "beta_constraint": null, "gamma_constraint": null, "synchronized": false}, "build_config": {"input_shape": [null, 14, 14, 672]}, "name": "expanded_conv_12_expand_bn", "inbound_nodes": [{"args": [{"class_name": "__keras_tensor__", "config": {"shape": [null, 14, 14, 672], "dtype": "float32", "keras_history": ["expanded_conv_12_expand", 0, 0]}}], "kwargs": {"mask": null}}]}, {"class_name": "Activation", "config": {"name": "activation_13", "trainable": false, "dtype": {"class_name": "DTypePolicy", "config": {"name": "float32"}, "shared_object_id": 140251169567616}, "activation": "hard_silu"}, "name": "activation_13", "inbound_nodes": [{"args": [{"class_name": "__keras_tensor__", "config": {"shape": [null, 14, 14, 672], "dtype": "float32", "keras_history": ["expanded_conv_12_expand_bn", 0, 0]}}], "kwargs": {}}]}, {"class_name": "ZeroPadding2D", "config": {"name": "expanded_conv_12_depthwise_pad", "trainable": false, "dtype": {"class_name": "DTypePolicy", "config": {"name": "float32"}, "shared_object_id": 140251169567616}, "padding": [[1, 2], [1, 2]], "data_format": "channels_last"}, "build_config": {"input_shape": [null, 14, 14, 672]}, "name": "expanded_conv_12_depthwise_pad", "inbound_nodes": [{"args": [{"class_name": "__keras_tensor__", "config": {"shape": [null, 14, 14, 672], "dtype": "float32", "keras_history": ["activation_13", 0, 0]}}], "kwargs": {}}]}, {"class_name": "DepthwiseConv2D", "config": {"name": "expanded_conv_12_depthwise", "trainable": false, "dtype": {"class_name": "DTypePolicy", "config": {"name": "float32"}, "shared_object_id": 140251169567616}, "depth_multiplier": 1, "kernel_size": [5, 5], "strides": [2, 2], "padding": "valid", "data_format": "channels_last", "dilation_rate": [1, 1], "activation": "linear", "use_bias": false, "depthwise_initializer": {"class_name": "GlorotUniform", "config": {"seed": null}}, "bias_initializer": {"class_name": "Zeros", "config": {}}, "depthwise_regularizer": null, "bias_regularizer": null, "activity_regularizer": null, "depthwise_constraint": null, "bias_constraint": null}, "build_config": {"input_shape": [null, 17, 17, 672]}, "name": "expanded_conv_12_depthwise", "inbound_nodes": [{"args": [{"class_name": "__keras_tensor__", "config": {"shape": [null, 17, 17, 672], "dtype": "float32", "keras_history": ["expanded_conv_12_depthwise_pad", 0, 0]}}], "kwargs": {}}]}, {"class_name": "BatchNormalization", "config": {"name": "expanded_conv_12_depthwise_bn", "trainable": false, "dtype": {"class_name": "DTypePolicy", "config": {"name": "float32"}, "shared_object_id": 140251169567616}, "axis": -1, "momentum": 0.999, "epsilon": 0.001, "center": true, "scale": true, "beta_initializer": {"class_name": "Zeros", "config": {}}, "gamma_initializer": {"class_name": "Ones", "config": {}}, "moving_mean_initializer": {"class_name": "Zeros", "config": {}}, "moving_variance_initializer": {"class_name": "Ones", "config": {}}, "beta_regularizer": null, "gamma_regularizer": null, "beta_constraint": null, "gamma_constraint": null, "synchronized": false}, "build_config": {"input_shape": [null, 7, 7, 672]}, "name": "expanded_conv_12_depthwise_bn", "inbound_nodes": [{"args": [{"class_name": "__keras_tensor__", "config": {"shape": [null, 7, 7, 672], "dtype": "float32", "keras_history": ["expanded_conv_12_depthwise", 0, 0]}}], "kwargs": {"mask": null}}]}, {"class_name": "Activation", "config": {"name": "activation_14", "trainable": false, "dtype": {"class_name": "DTypePolicy", "config": {"name": "float32"}, "shared_object_id": 140251169567616}, "activation": "hard_silu"}, "name": "activation_14", "inbound_nodes": [{"args": [{"class_name": "__keras_tensor__", "config": {"shape": [null, 7, 7, 672], "dtype": "float32", "keras_history": ["expanded_conv_12_depthwise_bn", 0, 0]}}], "kwargs": {}}]}, {"class_name": "GlobalAveragePooling2D", "config": {"name": "expanded_conv_12_squeeze_excite_avg_pool", "trainable": false, "dtype": {"class_name": "DTypePolicy", "config": {"name": "float32"}, "shared_object_id": 140251169567616}, "data_format": "channels_last", "keepdims": true}, "name": "expanded_conv_12_squeeze_excite_avg_pool", "inbound_nodes": [{"args": [{"class_name": "__keras_tensor__", "config": {"shape": [null, 7, 7, 672], "dtype": "float32", "keras_history": ["activation_14", 0, 0]}}], "kwargs": {}}]}, {"class_name": "Conv2D", "config": {"name": "expanded_conv_12_squeeze_excite_conv", "trainable": false, "dtype": {"class_name": "DTypePolicy", "config": {"name": "float32"}, "shared_object_id": 140251169567616}, "filters": 168, "kernel_size": [1, 1], "strides": [1, 1], "padding": "same", "data_format": "channels_last", "dilation_rate": [1, 1], "groups": 1, "activation": "linear", "use_bias": true, "kernel_initializer": {"class_name": "GlorotUniform", "config": {"seed": null}}, "bias_initializer": {"class_name": "Zeros", "config": {}}, "kernel_regularizer": null, "bias_regularizer": null, "activity_regularizer": null, "kernel_constraint": null, "bias_constraint": null}, "build_config": {"input_shape": [null, 1, 1, 672]}, "name": "expanded_conv_12_squeeze_excite_conv", "inbound_nodes": [{"args": [{"class_name": "__keras_tensor__", "config": {"shape": [null, 1, 1, 672], "dtype": "float32", "keras_history": ["expanded_conv_12_squeeze_excite_avg_pool", 0, 0]}}], "kwargs": {}}]}, {"class_name": "ReLU", "config": {"name": "expanded_conv_12_squeeze_excite_relu", "trainable": false, "dtype": {"class_name": "DTypePolicy", "config": {"name": "float32"}, "shared_object_id": 140251169567616}, "max_value": null, "negative_slope": 0.0, "threshold": 0.0}, "name": "expanded_conv_12_squeeze_excite_relu", "inbound_nodes": [{"args": [{"class_name": "__keras_tensor__", "config": {"shape": [null, 1, 1, 168], "dtype": "float32", "keras_history": ["expanded_conv_12_squeeze_excite_conv", 0, 0]}}], "kwargs": {}}]}, {"class_name": "Conv2D", "config": {"name": "expanded_conv_12_squeeze_excite_conv_1", "trainable": false, "dtype": {"class_name": "DTypePolicy", "config": {"name": "float32"}, "shared_object_id": 140251169567616}, "filters": 672, "kernel_size": [1, 1], "strides": [1, 1], "padding": "same", "data_format": "channels_last", "dilation_rate": [1, 1], "groups": 1, "activation": "linear", "use_bias": true, "kernel_initializer": {"class_name": "GlorotUniform", "config": {"seed": null}}, "bias_initializer": {"class_name": "Zeros", "config": {}}, "kernel_regularizer": null, "bias_regularizer": null, "activity_regularizer": null, "kernel_constraint": null, "bias_constraint": null}, "build_config": {"input_shape": [null, 1, 1, 168]}, "name": "expanded_conv_12_squeeze_excite_conv_1", "inbound_nodes": [{"args": [{"class_name": "__keras_tensor__", "config": {"shape": [null, 1, 1, 168], "dtype": "float32", "keras_history": ["expanded_conv_12_squeeze_excite_relu", 0, 0]}}], "kwargs": {}}]}, {"class_name": "Add", "config": {"name": "add_5"}, "name": "add_5", "inbound_nodes": [{"args": [{"class_name": "__keras_tensor__", "config": {"shape": [null, 1, 1, 672], "dtype": "float32", "keras_history": ["expanded_conv_12_squeeze_excite_conv_1", 0, 0]}}, 3.0], "kwargs": {}}]}, {"class_name": "ReLU", "config": {"name": "re_lu_16", "trainable": false, "dtype": {"class_name": "DTypePolicy", "config": {"name": "float32"}, "shared_object_id": 140251169567616}, "max_value": 6.0, "negative_slope": 0.0, "threshold": 0.0}, "name": "re_lu_16", "inbound_nodes": [{"args": [{"class_name": "__keras_tensor__", "config": {"shape": [null, 1, 1, 672], "dtype": "float32", "keras_history": ["add_5", 0, 0]}}], "kwargs": {}}]}, {"class_name": "Multiply", "config": {"name": "multiply_5"}, "name": "multiply_5", "inbound_nodes": [{"args": [{"class_name": "__keras_tensor__", "config": {"shape": [null, 1, 1, 672], "dtype": "float32", "keras_history": ["re_lu_16", 0, 0]}}, 0.16666666666666666], "kwargs": {}}]}, {"class_name": "Multiply", "config": {"name": "expanded_conv_12_squeeze_excite_mul", "trainable": false, "dtype": {"class_name": "DTypePolicy", "config": {"name": "float32"}, "shared_object_id": 140251169567616}}, "build_config": {"input_shape": [[null, 7, 7, 672], [null, 1, 1, 672]]}, "name": "expanded_conv_12_squeeze_excite_mul", "inbound_nodes": [{"args": [[{"class_name": "__keras_tensor__", "config": {"shape": [null, 7, 7, 672], "dtype": "float32", "keras_history": ["activation_14", 0, 0]}}, {"class_name": "__keras_tensor__", "config": {"shape": [null, 1, 1, 672], "dtype": "float32", "keras_history": ["multiply_5", 0, 0]}}]], "kwargs": {}}]}, {"class_name": "Conv2D", "config": {"name": "expanded_conv_12_project", "trainable": false, "dtype": {"class_name": "DTypePolicy", "config": {"name": "float32"}, "shared_object_id": 140251169567616}, "filters": 160, "kernel_size": [1, 1], "strides": [1, 1], "padding": "same", "data_format": "channels_last", "dilation_rate": [1, 1], "groups": 1, "activation": "linear", "use_bias": false, "kernel_initializer": {"class_name": "GlorotUniform", "config": {"seed": null}}, "bias_initializer": {"class_name": "Zeros", "config": {}}, "kernel_regularizer": null, "bias_regularizer": null, "activity_regularizer": null, "kernel_constraint": null, "bias_constraint": null}, "build_config": {"input_shape": [null, 7, 7, 672]}, "name": "expanded_conv_12_project", "inbound_nodes": [{"args": [{"class_name": "__keras_tensor__", "config": {"shape": [null, 7, 7, 672], "dtype": "float32", "keras_history": ["expanded_conv_12_squeeze_excite_mul", 0, 0]}}], "kwargs": {}}]}, {"class_name": "BatchNormalization", "config": {"name": "expanded_conv_12_project_bn", "trainable": false, "dtype": {"class_name": "DTypePolicy", "config": {"name": "float32"}, "shared_object_id": 140251169567616}, "axis": -1, "momentum": 0.999, "epsilon": 0.001, "center": true, "scale": true, "beta_initializer": {"class_name": "Zeros", "config": {}}, "gamma_initializer": {"class_name": "Ones", "config": {}}, "moving_mean_initializer": {"class_name": "Zeros", "config": {}}, "moving_variance_initializer": {"class_name": "Ones", "config": {}}, "beta_regularizer": null, "gamma_regularizer": null, "beta_constraint": null, "gamma_constraint": null, "synchronized": false}, "build_config": {"input_shape": [null, 7, 7, 160]}, "name": "expanded_conv_12_project_bn", "inbound_nodes": [{"args": [{"class_name": "__keras_tensor__", "config": {"shape": [null, 7, 7, 160], "dtype": "float32", "keras_history": ["expanded_conv_12_project", 0, 0]}}], "kwargs": {"mask": null}}]}, {"class_name": "Conv2D", "config": {"name": "expanded_conv_13_expand", "trainable": false, "dtype": {"class_name": "DTypePolicy", "config": {"name": "float32"}, "shared_object_id": 140251169567616}, "filters": 960, "kernel_size": [1, 1], "strides": [1, 1], "padding": "same", "data_format": "channels_last", "dilation_rate": [1, 1], "groups": 1, "activation": "linear", "use_bias": false, "kernel_initializer": {"class_name": "GlorotUniform", "config": {"seed": null}}, "bias_initializer": {"class_name": "Zeros", "config": {}}, "kernel_regularizer": null, "bias_regularizer": null, "activity_regularizer": null, "kernel_constraint": null, "bias_constraint": null}, "build_config": {"input_shape": [null, 7, 7, 160]}, "name": "expanded_conv_13_expand", "inbound_nodes": [{"args": [{"class_name": "__keras_tensor__", "config": {"shape": [null, 7, 7, 160], "dtype": "float32", "keras_history": ["expanded_conv_12_project_bn", 0, 0]}}], "kwargs": {}}]}, {"class_name": "BatchNormalization", "config": {"name": "expanded_conv_13_expand_bn", "trainable": false, "dtype": {"class_name": "DTypePolicy", "config": {"name": "float32"}, "shared_object_id": 140251169567616}, "axis": -1, "momentum": 0.999, "epsilon": 0.001, "center": true, "scale": true, "beta_initializer": {"class_name": "Zeros", "config": {}}, "gamma_initializer": {"class_name": "Ones", "config": {}}, "moving_mean_initializer": {"class_name": "Zeros", "config": {}}, "moving_variance_initializer": {"class_name": "Ones", "config": {}}, "beta_regularizer": null, "gamma_regularizer": null, "beta_constraint": null, "gamma_constraint": null, "synchronized": false}, "build_config": {"input_shape": [null, 7, 7, 960]}, "name": "expanded_conv_13_expand_bn", "inbound_nodes": [{"args": [{"class_name": "__keras_tensor__", "config": {"shape": [null, 7, 7, 960], "dtype": "float32", "keras_history": ["expanded_conv_13_expand", 0, 0]}}], "kwargs": {"mask": null}}]}, {"class_name": "Activation", "config": {"name": "activation_15", "trainable": false, "dtype": {"class_name": "DTypePolicy", "config": {"name": "float32"}, "shared_object_id": 140251169567616}, "activation": "hard_silu"}, "name": "activation_15", "inbound_nodes": [{"args": [{"class_name": "__keras_tensor__", "config": {"shape": [null, 7, 7, 960], "dtype": "float32", "keras_history": ["expanded_conv_13_expand_bn", 0, 0]}}], "kwargs": {}}]}, {"class_name": "DepthwiseConv2D", "config": {"name": "expanded_conv_13_depthwise", "trainable": false, "dtype": {"class_name": "DTypePolicy", "config": {"name": "float32"}, "shared_object_id": 140251169567616}, "depth_multiplier": 1, "kernel_size": [5, 5], "strides": [1, 1], "padding": "same", "data_format": "channels_last", "dilation_rate": [1, 1], "activation": "linear", "use_bias": false, "depthwise_initializer": {"class_name": "GlorotUniform", "config": {"seed": null}}, "bias_initializer": {"class_name": "Zeros", "config": {}}, "depthwise_regularizer": null, "bias_regularizer": null, "activity_regularizer": null, "depthwise_constraint": null, "bias_constraint": null}, "build_config": {"input_shape": [null, 7, 7, 960]}, "name": "expanded_conv_13_depthwise", "inbound_nodes": [{"args": [{"class_name": "__keras_tensor__", "config": {"shape": [null, 7, 7, 960], "dtype": "float32", "keras_history": ["activation_15", 0, 0]}}], "kwargs": {}}]}, {"class_name": "BatchNormalization", "config": {"name": "expanded_conv_13_depthwise_bn", "trainable": false, "dtype": {"class_name": "DTypePolicy", "config": {"name": "float32"}, "shared_object_id": 140251169567616}, "axis": -1, "momentum": 0.999, "epsilon": 0.001, "center": true, "scale": true, "beta_initializer": {"class_name": "Zeros", "config": {}}, "gamma_initializer": {"class_name": "Ones", "config": {}}, "moving_mean_initializer": {"class_name": "Zeros", "config": {}}, "moving_variance_initializer": {"class_name": "Ones", "config": {}}, "beta_regularizer": null, "gamma_regularizer": null, "beta_constraint": null, "gamma_constraint": null, "synchronized": false}, "build_config": {"input_shape": [null, 7, 7, 960]}, "name": "expanded_conv_13_depthwise_bn", "inbound_nodes": [{"args": [{"class_name": "__keras_tensor__", "config": {"shape": [null, 7, 7, 960], "dtype": "float32", "keras_history": ["expanded_conv_13_depthwise", 0, 0]}}], "kwargs": {"mask": null}}]}, {"class_name": "Activation", "config": {"name": "activation_16", "trainable": false, "dtype": {"class_name": "DTypePolicy", "config": {"name": "float32"}, "shared_object_id": 140251169567616}, "activation": "hard_silu"}, "name": "activation_16", "inbound_nodes": [{"args": [{"class_name": "__keras_tensor__", "config": {"shape": [null, 7, 7, 960], "dtype": "float32", "keras_history": ["expanded_conv_13_depthwise_bn", 0, 0]}}], "kwargs": {}}]}, {"class_name": "GlobalAveragePooling2D", "config": {"name": "expanded_conv_13_squeeze_excite_avg_pool", "trainable": false, "dtype": {"class_name": "DTypePolicy", "config": {"name": "float32"}, "shared_object_id": 140251169567616}, "data_format": "channels_last", "keepdims": true}, "name": "expanded_conv_13_squeeze_excite_avg_pool", "inbound_nodes": [{"args": [{"class_name": "__keras_tensor__", "config": {"shape": [null, 7, 7, 960], "dtype": "float32", "keras_history": ["activation_16", 0, 0]}}], "kwargs": {}}]}, {"class_name": "Conv2D", "config": {"name": "expanded_conv_13_squeeze_excite_conv", "trainable": false, "dtype": {"class_name": "DTypePolicy", "config": {"name": "float32"}, "shared_object_id": 140251169567616}, "filters": 240, "kernel_size": [1, 1], "strides": [1, 1], "padding": "same", "data_format": "channels_last", "dilation_rate": [1, 1], "groups": 1, "activation": "linear", "use_bias": true, "kernel_initializer": {"class_name": "GlorotUniform", "config": {"seed": null}}, "bias_initializer": {"class_name": "Zeros", "config": {}}, "kernel_regularizer": null, "bias_regularizer": null, "activity_regularizer": null, "kernel_constraint": null, "bias_constraint": null}, "build_config": {"input_shape": [null, 1, 1, 960]}, "name": "expanded_conv_13_squeeze_excite_conv", "inbound_nodes": [{"args": [{"class_name": "__keras_tensor__", "config": {"shape": [null, 1, 1, 960], "dtype": "float32", "keras_history": ["expanded_conv_13_squeeze_excite_avg_pool", 0, 0]}}], "kwargs": {}}]}, {"class_name": "ReLU", "config": {"name": "expanded_conv_13_squeeze_excite_relu", "trainable": false, "dtype": {"class_name": "DTypePolicy", "config": {"name": "float32"}, "shared_object_id": 140251169567616}, "max_value": null, "negative_slope": 0.0, "threshold": 0.0}, "name": "expanded_conv_13_squeeze_excite_relu", "inbound_nodes": [{"args": [{"class_name": "__keras_tensor__", "config": {"shape": [null, 1, 1, 240], "dtype": "float32", "keras_history": ["expanded_conv_13_squeeze_excite_conv", 0, 0]}}], "kwargs": {}}]}, {"class_name": "Conv2D", "config": {"name": "expanded_conv_13_squeeze_excite_conv_1", "trainable": false, "dtype": {"class_name": "DTypePolicy", "config": {"name": "float32"}, "shared_object_id": 140251169567616}, "filters": 960, "kernel_size": [1, 1], "strides": [1, 1], "padding": "same", "data_format": "channels_last", "dilation_rate": [1, 1], "groups": 1, "activation": "linear", "use_bias": true, "kernel_initializer": {"class_name": "GlorotUniform", "config": {"seed": null}}, "bias_initializer": {"class_name": "Zeros", "config": {}}, "kernel_regularizer": null, "bias_regularizer": null, "activity_regularizer": null, "kernel_constraint": null, "bias_constraint": null}, "build_config": {"input_shape": [null, 1, 1, 240]}, "name": "expanded_conv_13_squeeze_excite_conv_1", "inbound_nodes": [{"args": [{"class_name": "__keras_tensor__", "config": {"shape": [null, 1, 1, 240], "dtype": "float32", "keras_history": ["expanded_conv_13_squeeze_excite_relu", 0, 0]}}], "kwargs": {}}]}, {"class_name": "Add", "config": {"name": "add_6"}, "name": "add_6", "inbound_nodes": [{"args": [{"class_name": "__keras_tensor__", "config": {"shape": [null, 1, 1, 960], "dtype": "float32", "keras_history": ["expanded_conv_13_squeeze_excite_conv_1", 0, 0]}}, 3.0], "kwargs": {}}]}, {"class_name": "ReLU", "config": {"name": "re_lu_17", "trainable": false, "dtype": {"class_name": "DTypePolicy", "config": {"name": "float32"}, "shared_object_id": 140251169567616}, "max_value": 6.0, "negative_slope": 0.0, "threshold": 0.0}, "name": "re_lu_17", "inbound_nodes": [{"args": [{"class_name": "__keras_tensor__", "config": {"shape": [null, 1, 1, 960], "dtype": "float32", "keras_history": ["add_6", 0, 0]}}], "kwargs": {}}]}, {"class_name": "Multiply", "config": {"name": "multiply_6"}, "name": "multiply_6", "inbound_nodes": [{"args": [{"class_name": "__keras_tensor__", "config": {"shape": [null, 1, 1, 960], "dtype": "float32", "keras_history": ["re_lu_17", 0, 0]}}, 0.16666666666666666], "kwargs": {}}]}, {"class_name": "Multiply", "config": {"name": "expanded_conv_13_squeeze_excite_mul", "trainable": false, "dtype": {"class_name": "DTypePolicy", "config": {"name": "float32"}, "shared_object_id": 140251169567616}}, "build_config": {"input_shape": [[null, 7, 7, 960], [null, 1, 1, 960]]}, "name": "expanded_conv_13_squeeze_excite_mul", "inbound_nodes": [{"args": [[{"class_name": "__keras_tensor__", "config": {"shape": [null, 7, 7, 960], "dtype": "float32", "keras_history": ["activation_16", 0, 0]}}, {"class_name": "__keras_tensor__", "config": {"shape": [null, 1, 1, 960], "dtype": "float32", "keras_history": ["multiply_6", 0, 0]}}]], "kwargs": {}}]}, {"class_name": "Conv2D", "config": {"name": "expanded_conv_13_project", "trainable": false, "dtype": {"class_name": "DTypePolicy", "config": {"name": "float32"}, "shared_object_id": 140251169567616}, "filters": 160, "kernel_size": [1, 1], "strides": [1, 1], "padding": "same", "data_format": "channels_last", "dilation_rate": [1, 1], "groups": 1, "activation": "linear", "use_bias": false, "kernel_initializer": {"class_name": "GlorotUniform", "config": {"seed": null}}, "bias_initializer": {"class_name": "Zeros", "config": {}}, "kernel_regularizer": null, "bias_regularizer": null, "activity_regularizer": null, "kernel_constraint": null, "bias_constraint": null}, "build_config": {"input_shape": [null, 7, 7, 960]}, "name": "expanded_conv_13_project", "inbound_nodes": [{"args": [{"class_name": "__keras_tensor__", "config": {"shape": [null, 7, 7, 960], "dtype": "float32", "keras_history": ["expanded_conv_13_squeeze_excite_mul", 0, 0]}}], "kwargs": {}}]}, {"class_name": "BatchNormalization", "config": {"name": "expanded_conv_13_project_bn", "trainable": false, "dtype": {"class_name": "DTypePolicy", "config": {"name": "float32"}, "shared_object_id": 140251169567616}, "axis": -1, "momentum": 0.999, "epsilon": 0.001, "center": true, "scale": true, "beta_initializer": {"class_name": "Zeros", "config": {}}, "gamma_initializer": {"class_name": "Ones", "config": {}}, "moving_mean_initializer": {"class_name": "Zeros", "config": {}}, "moving_variance_initializer": {"class_name": "Ones", "config": {}}, "beta_regularizer": null, "gamma_regularizer": null, "beta_constraint": null, "gamma_constraint": null, "synchronized": false}, "build_config": {"input_shape": [null, 7, 7, 160]}, "name": "expanded_conv_13_project_bn", "inbound_nodes": [{"args": [{"class_name": "__keras_tensor__", "config": {"shape": [null, 7, 7, 160], "dtype": "float32", "keras_history": ["expanded_conv_13_project", 0, 0]}}], "kwargs": {"mask": null}}]}, {"class_name": "Add", "config": {"name": "expanded_conv_13_add", "trainable": false, "dtype": {"class_name": "DTypePolicy", "config": {"name": "float32"}, "shared_object_id": 140251169567616}}, "build_config": {"input_shape": [[null, 7, 7, 160], [null, 7, 7, 160]]}, "name": "expanded_conv_13_add", "inbound_nodes": [{"args": [[{"class_name": "__keras_tensor__", "config": {"shape": [null, 7, 7, 160], "dtype": "float32", "keras_history": ["expanded_conv_12_project_bn", 0, 0]}}, {"class_name": "__keras_tensor__", "config": {"shape": [null, 7, 7, 160], "dtype": "float32", "keras_history": ["expanded_conv_13_project_bn", 0, 0]}}]], "kwargs": {}}]}, {"class_name": "Conv2D", "config": {"name": "expanded_conv_14_expand", "trainable": false, "dtype": {"class_name": "DTypePolicy", "config": {"name": "float32"}, "shared_object_id": 140251169567616}, "filters": 960, "kernel_size": [1, 1], "strides": [1, 1], "padding": "same", "data_format": "channels_last", "dilation_rate": [1, 1], "groups": 1, "activation": "linear", "use_bias": false, "kernel_initializer": {"class_name": "GlorotUniform", "config": {"seed": null}}, "bias_initializer": {"class_name": "Zeros", "config": {}}, "kernel_regularizer": null, "bias_regularizer": null, "activity_regularizer": null, "kernel_constraint": null, "bias_constraint": null}, "build_config": {"input_shape": [null, 7, 7, 160]}, "name": "expanded_conv_14_expand", "inbound_nodes": [{"args": [{"class_name": "__keras_tensor__", "config": {"shape": [null, 7, 7, 160], "dtype": "float32", "keras_history": ["expanded_conv_13_add", 0, 0]}}], "kwargs": {}}]}, {"class_name": "BatchNormalization", "config": {"name": "expanded_conv_14_expand_bn", "trainable": false, "dtype": {"class_name": "DTypePolicy", "config": {"name": "float32"}, "shared_object_id": 140251169567616}, "axis": -1, "momentum": 0.999, "epsilon": 0.001, "center": true, "scale": true, "beta_initializer": {"class_name": "Zeros", "config": {}}, "gamma_initializer": {"class_name": "Ones", "config": {}}, "moving_mean_initializer": {"class_name": "Zeros", "config": {}}, "moving_variance_initializer": {"class_name": "Ones", "config": {}}, "beta_regularizer": null, "gamma_regularizer": null, "beta_constraint": null, "gamma_constraint": null, "synchronized": false}, "build_config": {"input_shape": [null, 7, 7, 960]}, "name": "expanded_conv_14_expand_bn", "inbound_nodes": [{"args": [{"class_name": "__keras_tensor__", "config": {"shape": [null, 7, 7, 960], "dtype": "float32", "keras_history": ["expanded_conv_14_expand", 0, 0]}}], "kwargs": {"mask": null}}]}, {"class_name": "Activation", "config": {"name": "activation_17", "trainable": false, "dtype": {"class_name": "DTypePolicy", "config": {"name": "float32"}, "shared_object_id": 140251169567616}, "activation": "hard_silu"}, "name": "activation_17", "inbound_nodes": [{"args": [{"class_name": "__keras_tensor__", "config": {"shape": [null, 7, 7, 960], "dtype": "float32", "keras_history": ["expanded_conv_14_expand_bn", 0, 0]}}], "kwargs": {}}]}, {"class_name": "DepthwiseConv2D", "config": {"name": "expanded_conv_14_depthwise", "trainable": false, "dtype": {"class_name": "DTypePolicy", "config": {"name": "float32"}, "shared_object_id": 140251169567616}, "depth_multiplier": 1, "kernel_size": [5, 5], "strides": [1, 1], "padding": "same", "data_format": "channels_last", "dilation_rate": [1, 1], "activation": "linear", "use_bias": false, "depthwise_initializer": {"class_name": "GlorotUniform", "config": {"seed": null}}, "bias_initializer": {"class_name": "Zeros", "config": {}}, "depthwise_regularizer": null, "bias_regularizer": null, "activity_regularizer": null, "depthwise_constraint": null, "bias_constraint": null}, "build_config": {"input_shape": [null, 7, 7, 960]}, "name": "expanded_conv_14_depthwise", "inbound_nodes": [{"args": [{"class_name": "__keras_tensor__", "config": {"shape": [null, 7, 7, 960], "dtype": "float32", "keras_history": ["activation_17", 0, 0]}}], "kwargs": {}}]}, {"class_name": "BatchNormalization", "config": {"name": "expanded_conv_14_depthwise_bn", "trainable": false, "dtype": {"class_name": "DTypePolicy", "config": {"name": "float32"}, "shared_object_id": 140251169567616}, "axis": -1, "momentum": 0.999, "epsilon": 0.001, "center": true, "scale": true, "beta_initializer": {"class_name": "Zeros", "config": {}}, "gamma_initializer": {"class_name": "Ones", "config": {}}, "moving_mean_initializer": {"class_name": "Zeros", "config": {}}, "moving_variance_initializer": {"class_name": "Ones", "config": {}}, "beta_regularizer": null, "gamma_regularizer": null, "beta_constraint": null, "gamma_constraint": null, "synchronized": false}, "build_config": {"input_shape": [null, 7, 7, 960]}, "name": "expanded_conv_14_depthwise_bn", "inbound_nodes": [{"args": [{"class_name": "__keras_tensor__", "config": {"shape": [null, 7, 7, 960], "dtype": "float32", "keras_history": ["expanded_conv_14_depthwise", 0, 0]}}], "kwargs": {"mask": null}}]}, {"class_name": "Activation", "config": {"name": "activation_18", "trainable": false, "dtype": {"class_name": "DTypePolicy", "config": {"name": "float32"}, "shared_object_id": 140251169567616}, "activation": "hard_silu"}, "name": "activation_18", "inbound_nodes": [{"args": [{"class_name": "__keras_tensor__", "config": {"shape": [null, 7, 7, 960], "dtype": "float32", "keras_history": ["expanded_conv_14_depthwise_bn", 0, 0]}}], "kwargs": {}}]}, {"class_name": "GlobalAveragePooling2D", "config": {"name": "expanded_conv_14_squeeze_excite_avg_pool", "trainable": false, "dtype": {"class_name": "DTypePolicy", "config": {"name": "float32"}, "shared_object_id": 140251169567616}, "data_format": "channels_last", "keepdims": true}, "name": "expanded_conv_14_squeeze_excite_avg_pool", "inbound_nodes": [{"args": [{"class_name": "__keras_tensor__", "config": {"shape": [null, 7, 7, 960], "dtype": "float32", "keras_history": ["activation_18", 0, 0]}}], "kwargs": {}}]}, {"class_name": "Conv2D", "config": {"name": "expanded_conv_14_squeeze_excite_conv", "trainable": false, "dtype": {"class_name": "DTypePolicy", "config": {"name": "float32"}, "shared_object_id": 140251169567616}, "filters": 240, "kernel_size": [1, 1], "strides": [1, 1], "padding": "same", "data_format": "channels_last", "dilation_rate": [1, 1], "groups": 1, "activation": "linear", "use_bias": true, "kernel_initializer": {"class_name": "GlorotUniform", "config": {"seed": null}}, "bias_initializer": {"class_name": "Zeros", "config": {}}, "kernel_regularizer": null, "bias_regularizer": null, "activity_regularizer": null, "kernel_constraint": null, "bias_constraint": null}, "build_config": {"input_shape": [null, 1, 1, 960]}, "name": "expanded_conv_14_squeeze_excite_conv", "inbound_nodes": [{"args": [{"class_name": "__keras_tensor__", "config": {"shape": [null, 1, 1, 960], "dtype": "float32", "keras_history": ["expanded_conv_14_squeeze_excite_avg_pool", 0, 0]}}], "kwargs": {}}]}, {"class_name": "ReLU", "config": {"name": "expanded_conv_14_squeeze_excite_relu", "trainable": false, "dtype": {"class_name": "DTypePolicy", "config": {"name": "float32"}, "shared_object_id": 140251169567616}, "max_value": null, "negative_slope": 0.0, "threshold": 0.0}, "name": "expanded_conv_14_squeeze_excite_relu", "inbound_nodes": [{"args": [{"class_name": "__keras_tensor__", "config": {"shape": [null, 1, 1, 240], "dtype": "float32", "keras_history": ["expanded_conv_14_squeeze_excite_conv", 0, 0]}}], "kwargs": {}}]}, {"class_name": "Conv2D", "config": {"name": "expanded_conv_14_squeeze_excite_conv_1", "trainable": false, "dtype": {"class_name": "DTypePolicy", "config": {"name": "float32"}, "shared_object_id": 140251169567616}, "filters": 960, "kernel_size": [1, 1], "strides": [1, 1], "padding": "same", "data_format": "channels_last", "dilation_rate": [1, 1], "groups": 1, "activation": "linear", "use_bias": true, "kernel_initializer": {"class_name": "GlorotUniform", "config": {"seed": null}}, "bias_initializer": {"class_name": "Zeros", "config": {}}, "kernel_regularizer": null, "bias_regularizer": null, "activity_regularizer": null, "kernel_constraint": null, "bias_constraint": null}, "build_config": {"input_shape": [null, 1, 1, 240]}, "name": "expanded_conv_14_squeeze_excite_conv_1", "inbound_nodes": [{"args": [{"class_name": "__keras_tensor__", "config": {"shape": [null, 1, 1, 240], "dtype": "float32", "keras_history": ["expanded_conv_14_squeeze_excite_relu", 0, 0]}}], "kwargs": {}}]}, {"class_name": "Add", "config": {"name": "add_7"}, "name": "add_7", "inbound_nodes": [{"args": [{"class_name": "__keras_tensor__", "config": {"shape": [null, 1, 1, 960], "dtype": "float32", "keras_history": ["expanded_conv_14_squeeze_excite_conv_1", 0, 0]}}, 3.0], "kwargs": {}}]}, {"class_name": "ReLU", "config": {"name": "re_lu_18", "trainable": false, "dtype": {"class_name": "DTypePolicy", "config": {"name": "float32"}, "shared_object_id": 140251169567616}, "max_value": 6.0, "negative_slope": 0.0, "threshold": 0.0}, "name": "re_lu_18", "inbound_nodes": [{"args": [{"class_name": "__keras_tensor__", "config": {"shape": [null, 1, 1, 960], "dtype": "float32", "keras_history": ["add_7", 0, 0]}}], "kwargs": {}}]}, {"class_name": "Multiply", "config": {"name": "multiply_7"}, "name": "multiply_7", "inbound_nodes": [{"args": [{"class_name": "__keras_tensor__", "config": {"shape": [null, 1, 1, 960], "dtype": "float32", "keras_history": ["re_lu_18", 0, 0]}}, 0.16666666666666666], "kwargs": {}}]}, {"class_name": "Multiply", "config": {"name": "expanded_conv_14_squeeze_excite_mul", "trainable": false, "dtype": {"class_name": "DTypePolicy", "config": {"name": "float32"}, "shared_object_id": 140251169567616}}, "build_config": {"input_shape": [[null, 7, 7, 960], [null, 1, 1, 960]]}, "name": "expanded_conv_14_squeeze_excite_mul", "inbound_nodes": [{"args": [[{"class_name": "__keras_tensor__", "config": {"shape": [null, 7, 7, 960], "dtype": "float32", "keras_history": ["activation_18", 0, 0]}}, {"class_name": "__keras_tensor__", "config": {"shape": [null, 1, 1, 960], "dtype": "float32", "keras_history": ["multiply_7", 0, 0]}}]], "kwargs": {}}]}, {"class_name": "Conv2D", "config": {"name": "expanded_conv_14_project", "trainable": false, "dtype": {"class_name": "DTypePolicy", "config": {"name": "float32"}, "shared_object_id": 140251169567616}, "filters": 160, "kernel_size": [1, 1], "strides": [1, 1], "padding": "same", "data_format": "channels_last", "dilation_rate": [1, 1], "groups": 1, "activation": "linear", "use_bias": false, "kernel_initializer": {"class_name": "GlorotUniform", "config": {"seed": null}}, "bias_initializer": {"class_name": "Zeros", "config": {}}, "kernel_regularizer": null, "bias_regularizer": null, "activity_regularizer": null, "kernel_constraint": null, "bias_constraint": null}, "build_config": {"input_shape": [null, 7, 7, 960]}, "name": "expanded_conv_14_project", "inbound_nodes": [{"args": [{"class_name": "__keras_tensor__", "config": {"shape": [null, 7, 7, 960], "dtype": "float32", "keras_history": ["expanded_conv_14_squeeze_excite_mul", 0, 0]}}], "kwargs": {}}]}, {"class_name": "BatchNormalization", "config": {"name": "expanded_conv_14_project_bn", "trainable": false, "dtype": {"class_name": "DTypePolicy", "config": {"name": "float32"}, "shared_object_id": 140251169567616}, "axis": -1, "momentum": 0.999, "epsilon": 0.001, "center": true, "scale": true, "beta_initializer": {"class_name": "Zeros", "config": {}}, "gamma_initializer": {"class_name": "Ones", "config": {}}, "moving_mean_initializer": {"class_name": "Zeros", "config": {}}, "moving_variance_initializer": {"class_name": "Ones", "config": {}}, "beta_regularizer": null, "gamma_regularizer": null, "beta_constraint": null, "gamma_constraint": null, "synchronized": false}, "build_config": {"input_shape": [null, 7, 7, 160]}, "name": "expanded_conv_14_project_bn", "inbound_nodes": [{"args": [{"class_name": "__keras_tensor__", "config": {"shape": [null, 7, 7, 160], "dtype": "float32", "keras_history": ["expanded_conv_14_project", 0, 0]}}], "kwargs": {"mask": null}}]}, {"class_name": "Add", "config": {"name": "expanded_conv_14_add", "trainable": false, "dtype": {"class_name": "DTypePolicy", "config": {"name": "float32"}, "shared_object_id": 140251169567616}}, "build_config": {"input_shape": [[null, 7, 7, 160], [null, 7, 7, 160]]}, "name": "expanded_conv_14_add", "inbound_nodes": [{"args": [[{"class_name": "__keras_tensor__", "config": {"shape": [null, 7, 7, 160], "dtype": "float32", "keras_history": ["expanded_conv_13_add", 0, 0]}}, {"class_name": "__keras_tensor__", "config": {"shape": [null, 7, 7, 160], "dtype": "float32", "keras_history": ["expanded_conv_14_project_bn", 0, 0]}}]], "kwargs": {}}]}, {"class_name": "Conv2D", "config": {"name": "conv_1", "trainable": false, "dtype": {"class_name": "DTypePolicy", "config": {"name": "float32"}, "shared_object_id": 140251169567616}, "filters": 960, "kernel_size": [1, 1], "strides": [1, 1], "padding": "same", "data_format": "channels_last", "dilation_rate": [1, 1], "groups": 1, "activation": "linear", "use_bias": false, "kernel_initializer": {"class_name": "GlorotUniform", "config": {"seed": null}}, "bias_initializer": {"class_name": "Zeros", "config": {}}, "kernel_regularizer": null, "bias_regularizer": null, "activity_regularizer": null, "kernel_constraint": null, "bias_constraint": null}, "build_config": {"input_shape": [null, 7, 7, 160]}, "name": "conv_1", "inbound_nodes": [{"args": [{"class_name": "__keras_tensor__", "config": {"shape": [null, 7, 7, 160], "dtype": "float32", "keras_history": ["expanded_conv_14_add", 0, 0]}}], "kwargs": {}}]}, {"class_name": "BatchNormalization", "config": {"name": "conv_1_bn", "trainable": false, "dtype": {"class_name": "DTypePolicy", "config": {"name": "float32"}, "shared_object_id": 140251169567616}, "axis": -1, "momentum": 0.999, "epsilon": 0.001, "center": true, "scale": true, "beta_initializer": {"class_name": "Zeros", "config": {}}, "gamma_initializer": {"class_name": "Ones", "config": {}}, "moving_mean_initializer": {"class_name": "Zeros", "config": {}}, "moving_variance_initializer": {"class_name": "Ones", "config": {}}, "beta_regularizer": null, "gamma_regularizer": null, "beta_constraint": null, "gamma_constraint": null, "synchronized": false}, "build_config": {"input_shape": [null, 7, 7, 960]}, "name": "conv_1_bn", "inbound_nodes": [{"args": [{"class_name": "__keras_tensor__", "config": {"shape": [null, 7, 7, 960], "dtype": "float32", "keras_history": ["conv_1", 0, 0]}}], "kwargs": {"mask": null}}]}, {"class_name": "Activation", "config": {"name": "activation_19", "trainable": false, "dtype": {"class_name": "DTypePolicy", "config": {"name": "float32"}, "shared_object_id": 140251169567616}, "activation": "hard_silu"}, "name": "activation_19", "inbound_nodes": [{"args": [{"class_name": "__keras_tensor__", "config": {"shape": [null, 7, 7, 960], "dtype": "float32", "keras_history": ["conv_1_bn", 0, 0]}}], "kwargs": {}}]}], "input_layers": [["input_layer", 0, 0]], "output_layers": [["activation_19", 0, 0]]}, "build_config": {"input_shape": null}, "compile_config": {}}, {"class_name": "Conv2D", "config": {"name": "conv2d", "trainable": true, "dtype": {"class_name": "DTypePolicy", "config": {"name": "float32"}, "shared_object_id": 140251169567616}, "filters": 512, "kernel_size": [3, 3], "strides": [1, 1], "padding": "same", "data_format": "channels_last", "dilation_rate": [1, 1], "groups": 1, "activation": "linear", "use_bias": false, "kernel_initializer": {"class_name": "GlorotUniform", "config": {"seed": null}}, "bias_initializer": {"class_name": "Zeros", "config": {}}, "kernel_regularizer": null, "bias_regularizer": null, "activity_regularizer": null, "kernel_constraint": null, "bias_constraint": null}, "build_config": {"input_shape": [null, 7, 7, 960]}}, {"class_name": "BatchNormalization", "config": {"name": "batch_normalization", "trainable": true, "dtype": {"class_name": "DTypePolicy", "config": {"name": "float32"}, "shared_object_id": 140251169567616}, "axis": -1, "momentum": 0.99, "epsilon": 0.001, "center": true, "scale": true, "beta_initializer": {"class_name": "Zeros", "config": {}}, "gamma_initializer": {"class_name": "Ones", "config": {}}, "moving_mean_initializer": {"class_name": "Zeros", "config": {}}, "moving_variance_initializer": {"class_name": "Ones", "config": {}}, "beta_regularizer": null, "gamma_regularizer": null, "beta_constraint": null, "gamma_constraint": null, "synchronized": false}, "build_config": {"input_shape": [null, 7, 7, 512]}}, {"class_name": "Activation", "config": {"name": "activation_20", "trainable": true, "dtype": {"class_name": "DTypePolicy", "config": {"name": "float32"}, "shared_object_id": 140251169567616}, "activation": "relu"}}, {"class_name": "GlobalAveragePooling2D", "config": {"name": "global_average_pooling2d", "trainable": true, "dtype": {"class_name": "DTypePolicy", "config": {"name": "float32"}, "shared_object_id": 140251169567616}, "data_format": "channels_last", "keepdims": false}}, {"class_name": "Dropout", "config": {"name": "dropout", "trainable": true, "dtype": {"class_name": "DTypePolicy", "config": {"name": "float32"}, "shared_object_id": 140251169567616}, "rate": 0.3, "seed": null, "noise_shape": null}}, {"class_name": "Dense", "config": {"name": "dense", "trainable": true, "dtype": {"class_name": "DTypePolicy", "config": {"name": "float32"}, "shared_object_id": 140251169567616}, "units": 10, "activation": "softmax", "use_bias": true, "kernel_initializer": {"class_name": "GlorotUniform", "config": {"seed": null}}, "bias_initializer": {"class_name": "Zeros", "config": {}}, "kernel_regularizer": null, "bias_regularizer": null, "kernel_constraint": null, "bias_constraint": null}, "build_config": {"input_shape": [null, 512]}}], "build_input_shape": [null, 224, 224, 3]}, "build_config": {"input_shape": [null, 224, 224, 3]}, "compile_config": {"optimizer": {"class_name": "Adam", "config": {"name": "adam", "learning_rate": 0.0010000000474974513, "weight_decay": null, "clipnorm": null, "global_clipnorm": null, "clipvalue": null, "use_ema": false, "ema_momentum": 0.99, "ema_overwrite_frequency": null, "loss_scale_factor": null, "gradient_accumulation_steps": null, "beta_1": 0.9, "beta_2": 0.999, "epsilon": 1e-07, "amsgrad": false}}, "loss": "categorical_crossentropy", "loss_weights": null, "metrics": ["accuracy"], "weighted_metrics": null, "run_eagerly": false, "steps_per_execution": 1, "jit_compile": false}}}, "weightsManifest": [{"paths": ["group1-shard1of16.bin", "group1-shard2of16.bin", "group1-shard3of16.bin", "group1-shard4of16.bin", "group1-shard5of16.bin", "group1-shard6of16.bin", "group1-shard7of16.bin", "group1-shard8of16.bin", "group1-shard9of16.bin", "group1-shard10of16.bin", "group1-shard11of16.bin", "group1-shard12of16.bin", "group1-shard13of16.bin", "group1-shard14of16.bin", "group1-shard15of16.bin", "group1-shard16of16.bin"], "weights": [{"name": "layers/batch_normalization/vars/0", "shape": [512], "dtype": "float32"}, {"name": "layers/batch_normalization/vars/1", "shape": [512], "dtype": "float32"}, {"name": "layers/batch_normalization/vars/2", "shape": [512], "dtype": "float32"}, {"name": "layers/batch_normalization/vars/3", "shape": [512], "dtype": "float32"}, {"name": "layers/conv2d/vars/0", "shape": [3, 3, 960, 512], "dtype": "float32"}, {"name": "layers/dense/vars/0", "shape": [512, 10], "dtype": "float32"}, {"name": "layers/dense/vars/1", "shape": [10], "dtype": "float32"}, {"name": "layers/functional/layers/batch_normalization/vars/0", "shape": [16], "dtype": "float32"}, {"name": "layers/functional/layers/batch_normalization/vars/1", "shape": [16], "dtype": "float32"}, {"name": "layers/functional/layers/batch_normalization/vars/2", "shape": [16], "dtype": "float32"}, {"name": "layers/functional/layers/batch_normalization/vars/3", "shape": [16], "dtype": "float32"}, {"name": "layers/functional/layers/batch_normalization_1/vars/0", "shape": [16], "dtype": "float32"}, {"name": "layers/functional/layers/batch_normalization_1/vars/1", "shape": [16], "dtype": "float32"}, {"name": "layers/functional/layers/batch_normalization_1/vars/2", "shape": [16], "dtype": "float32"}, {"name": "layers/functional/layers/batch_normalization_1/vars/3", "shape": [16], "dtype": "float32"}, {"name": "layers/functional/layers/batch_normalization_10/vars/0", "shape": [72], "dtype": "float32"}, {"name": "layers/functional/layers/batch_normalization_10/vars/1", "shape": [72], "dtype": "float32"}, {"name": "layers/functional/layers/batch_normalization_10/vars/2", "shape": [72], "dtype": "float32"}, {"name": "layers/functional/layers/batch_normalization_10/vars/3", "shape": [72], "dtype": "float32"}, {"name": "layers/functional/layers/batch_normalization_11/vars/0", "shape": [40], "dtype": "float32"}, {"name": "layers/functional/layers/batch_normalization_11/vars/1", "shape": [40], "dtype": "float32"}, {"name": "layers/functional/layers/batch_normalization_11/vars/2", "shape": [40], "dtype": "float32"}, {"name": "layers/functional/layers/batch_normalization_11/vars/3", "shape": [40], "dtype": "float32"}, {"name": "layers/functional/layers/batch_normalization_12/vars/0", "shape": [120], "dtype": "float32"}, {"name": "layers/functional/layers/batch_normalization_12/vars/1", "shape": [120], "dtype": "float32"}, {"name": "layers/functional/layers/batch_normalization_12/vars/2", "shape": [120], "dtype": "float32"}, {"name": "layers/functional/layers/batch_normalization_12/vars/3", "shape": [120], "dtype": "float32"}, {"name": "layers/functional/layers/batch_normalization_13/vars/0", "shape": [120], "dtype": "float32"}, {"name": "layers/functional/layers/batch_normalization_13/vars/1", "shape": [120], "dtype": "float32"}, {"name": "layers/functional/layers/batch_normalization_13/vars/2", "shape": [120], "dtype": "float32"}, {"name": "layers/functional/layers/batch_normalization_13/vars/3", "shape": [120], "dtype": "float32"}, {"name": "layers/functional/layers/batch_normalization_14/vars/0", "shape": [40], "dtype": "float32"}, {"name": "layers/functional/layers/batch_normalization_14/vars/1", "shape": [40], "dtype": "float32"}, {"name": "layers/functional/layers/batch_normalization_14/vars/2", "shape": [40], "dtype": "float32"}, {"name": "layers/functional/layers/batch_normalization_14/vars/3", "shape": [40], "dtype": "float32"}, {"name": "layers/functional/layers/batch_normalization_15/vars/0", "shape": [120], "dtype": "float32"}, {"name": "layers/functional/layers/batch_normalization_15/vars/1", "shape": [120], "dtype": "float32"}, {"name": "layers/functional/layers/batch_normalization_15/vars/2", "shape": [120], "dtype": "float32"}, {"name": "layers/functional/layers/batch_normalization_15/vars/3", "shape": [120], "dtype": "float32"}, {"name": "layers/functional/layers/batch_normalization_16/vars/0", "shape": [120], "dtype": "float32"}, {"name": "layers/functional/layers/batch_normalization_16/vars/1", "shape": [120], "dtype": "float32"}, {"name": "layers/functional/layers/batch_normalization_16/vars/2", "shape": [120], "dtype": "float32"}, {"name": "layers/functional/layers/batch_normalization_16/vars/3", "shape": [120], "dtype": "float32"}, {"name": "layers/functional/layers/batch_normalization_17/vars/0", "shape": [40], "dtype": "float32"}, {"name": "layers/functional/layers/batch_normalization_17/vars/1", "shape": [40], "dtype": "float32"}, {"name": "layers/functional/layers/batch_normalization_17/vars/2", "shape": [40], "dtype": "float32"}, {"name": "layers/functional/layers/batch_normalization_17/vars/3", "shape": [40], "dtype": "float32"}, {"name": "layers/functional/layers/batch_normalization_18/vars/0", "shape": [240], "dtype": "float32"}, {"name": "layers/functional/layers/batch_normalization_18/vars/1", "shape": [240], "dtype": "float32"}, {"name": "layers/functional/layers/batch_normalization_18/vars/2", "shape": [240], "dtype": "float32"}, {"name": "layers/functional/layers/batch_normalization_18/vars/3", "shape": [240], "dtype": "float32"}, {"name": "layers/functional/layers/batch_normalization_19/vars/0", "shape": [240], "dtype": "float32"}, {"name": "layers/functional/layers/batch_normalization_19/vars/1", "shape": [240], "dtype": "float32"}, {"name": "layers/functional/layers/batch_normalization_19/vars/2", "shape": [240], "dtype": "float32"}, {"name": "layers/functional/layers/batch_normalization_19/vars/3", "shape": [240], "dtype": "float32"}, {"name": "layers/functional/layers/batch_normalization_2/vars/0", "shape": [16], "dtype": "float32"}, {"name": "layers/functional/layers/batch_normalization_2/vars/1", "shape": [16], "dtype": "float32"}, {"name": "layers/functional/layers/batch_normalization_2/vars/2", "shape": [16], "dtype": "float32"}, {"name": "layers/functional/layers/batch_normalization_2/vars/3", "shape": [16], "dtype": "float32"}, {"name": "layers/functional/layers/batch_normalization_20/vars/0", "shape": [80], "dtype": "float32"}, {"name": "layers/functional/layers/batch_normalization_20/vars/1", "shape": [80], "dtype": "float32"}, {"name": "layers/functional/layers/batch_normalization_20/vars/2", "shape": [80], "dtype": "float32"}, {"name": "layers/functional/layers/batch_normalization_20/vars/3", "shape": [80], "dtype": "float32"}, {"name": "layers/functional/layers/batch_normalization_21/vars/0", "shape": [200], "dtype": "float32"}, {"name": "layers/functional/layers/batch_normalization_21/vars/1", "shape": [200], "dtype": "float32"}, {"name": "layers/functional/layers/batch_normalization_21/vars/2", "shape": [200], "dtype": "float32"}, {"name": "layers/functional/layers/batch_normalization_21/vars/3", "shape": [200], "dtype": "float32"}, {"name": "layers/functional/layers/batch_normalization_22/vars/0", "shape": [200], "dtype": "float32"}, {"name": "layers/functional/layers/batch_normalization_22/vars/1", "shape": [200], "dtype": "float32"}, {"name": "layers/functional/layers/batch_normalization_22/vars/2", "shape": [200], "dtype": "float32"}, {"name": "layers/functional/layers/batch_normalization_22/vars/3", "shape": [200], "dtype": "float32"}, {"name": "layers/functional/layers/batch_normalization_23/vars/0", "shape": [80], "dtype": "float32"}, {"name": "layers/functional/layers/batch_normalization_23/vars/1", "shape": [80], "dtype": "float32"}, {"name": "layers/functional/layers/batch_normalization_23/vars/2", "shape": [80], "dtype": "float32"}, {"name": "layers/functional/layers/batch_normalization_23/vars/3", "shape": [80], "dtype": "float32"}, {"name": "layers/functional/layers/batch_normalization_24/vars/0", "shape": [184], "dtype": "float32"}, {"name": "layers/functional/layers/batch_normalization_24/vars/1", "shape": [184], "dtype": "float32"}, {"name": "layers/functional/layers/batch_normalization_24/vars/2", "shape": [184], "dtype": "float32"}, {"name": "layers/functional/layers/batch_normalization_24/vars/3", "shape": [184], "dtype": "float32"}, {"name": "layers/functional/layers/batch_normalization_25/vars/0", "shape": [184], "dtype": "float32"}, {"name": "layers/functional/layers/batch_normalization_25/vars/1", "shape": [184], "dtype": "float32"}, {"name": "layers/functional/layers/batch_normalization_25/vars/2", "shape": [184], "dtype": "float32"}, {"name": "layers/functional/layers/batch_normalization_25/vars/3", "shape": [184], "dtype": "float32"}, {"name": "layers/functional/layers/batch_normalization_26/vars/0", "shape": [80], "dtype": "float32"}, {"name": "layers/functional/layers/batch_normalization_26/vars/1", "shape": [80], "dtype": "float32"}, {"name": "layers/functional/layers/batch_normalization_26/vars/2", "shape": [80], "dtype": "float32"}, {"name": "layers/functional/layers/batch_normalization_26/vars/3", "shape": [80], "dtype": "float32"}, {"name": "layers/functional/layers/batch_normalization_27/vars/0", "shape": [184], "dtype": "float32"}, {"name": "layers/functional/layers/batch_normalization_27/vars/1", "shape": [184], "dtype": "float32"}, {"name": "layers/functional/layers/batch_normalization_27/vars/2", "shape": [184], "dtype": "float32"}, {"name": "layers/functional/layers/batch_normalization_27/vars/3", "shape": [184], "dtype": "float32"}, {"name": "layers/functional/layers/batch_normalization_28/vars/0", "shape": [184], "dtype": "float32"}, {"name": "layers/functional/layers/batch_normalization_28/vars/1", "shape": [184], "dtype": "float32"}, {"name": "layers/functional/layers/batch_normalization_28/vars/2", "shape": [184], "dtype": "float32"}, {"name": "layers/functional/layers/batch_normalization_28/vars/3", "shape": [184], "dtype": "float32"}, {"name": "layers/functional/layers/batch_normalization_29/vars/0", "shape": [80], "dtype": "float32"}, {"name": "layers/functional/layers/batch_normalization_29/vars/1", "shape": [80], "dtype": "float32"}, {"name": "layers/functional/layers/batch_normalization_29/vars/2", "shape": [80], "dtype": "float32"}, {"name": "layers/functional/layers/batch_normalization_29/vars/3", "shape": [80], "dtype": "float32"}, {"name": "layers/functional/layers/batch_normalization_3/vars/0", "shape": [64], "dtype": "float32"}, {"name": "layers/functional/layers/batch_normalization_3/vars/1", "shape": [64], "dtype": "float32"}, {"name": "layers/functional/layers/batch_normalization_3/vars/2", "shape": [64], "dtype": "float32"}, {"name": "layers/functional/layers/batch_normalization_3/vars/3", "shape": [64], "dtype": "float32"}, {"name": "layers/functional/layers/batch_normalization_30/vars/0", "shape": [480], "dtype": "float32"}, {"name": "layers/functional/layers/batch_normalization_30/vars/1", "shape": [480], "dtype": "float32"}, {"name": "layers/functional/layers/batch_normalization_30/vars/2", "shape": [480], "dtype": "float32"}, {"name": "layers/functional/layers/batch_normalization_30/vars/3", "shape": [480], "dtype": "float32"}, {"name": "layers/functional/layers/batch_normalization_31/vars/0", "shape": [480], "dtype": "float32"}, {"name": "layers/functional/layers/batch_normalization_31/vars/1", "shape": [480], "dtype": "float32"}, {"name": "layers/functional/layers/batch_normalization_31/vars/2", "shape": [480], "dtype": "float32"}, {"name": "layers/functional/layers/batch_normalization_31/vars/3", "shape": [480], "dtype": "float32"}, {"name": "layers/functional/layers/batch_normalization_32/vars/0", "shape": [112], "dtype": "float32"}, {"name": "layers/functional/layers/batch_normalization_32/vars/1", "shape": [112], "dtype": "float32"}, {"name": "layers/functional/layers/batch_normalization_32/vars/2", "shape": [112], "dtype": "float32"}, {"name": "layers/functional/layers/batch_normalization_32/vars/3", "shape": [112], "dtype": "float32"}, {"name": "layers/functional/layers/batch_normalization_33/vars/0", "shape": [672], "dtype": "float32"}, {"name": "layers/functional/layers/batch_normalization_33/vars/1", "shape": [672], "dtype": "float32"}, {"name": "layers/functional/layers/batch_normalization_33/vars/2", "shape": [672], "dtype": "float32"}, {"name": "layers/functional/layers/batch_normalization_33/vars/3", "shape": [672], "dtype": "float32"}, {"name": "layers/functional/layers/batch_normalization_34/vars/0", "shape": [672], "dtype": "float32"}, {"name": "layers/functional/layers/batch_normalization_34/vars/1", "shape": [672], "dtype": "float32"}, {"name": "layers/functional/layers/batch_normalization_34/vars/2", "shape": [672], "dtype": "float32"}, {"name": "layers/functional/layers/batch_normalization_34/vars/3", "shape": [672], "dtype": "float32"}, {"name": "layers/functional/layers/batch_normalization_35/vars/0", "shape": [112], "dtype": "float32"}, {"name": "layers/functional/layers/batch_normalization_35/vars/1", "shape": [112], "dtype": "float32"}, {"name": "layers/functional/layers/batch_normalization_35/vars/2", "shape": [112], "dtype": "float32"}, {"name": "layers/functional/layers/batch_normalization_35/vars/3", "shape": [112], "dtype": "float32"}, {"name": "layers/functional/layers/batch_normalization_36/vars/0", "shape": [672], "dtype": "float32"}, {"name": "layers/functional/layers/batch_normalization_36/vars/1", "shape": [672], "dtype": "float32"}, {"name": "layers/functional/layers/batch_normalization_36/vars/2", "shape": [672], "dtype": "float32"}, {"name": "layers/functional/layers/batch_normalization_36/vars/3", "shape": [672], "dtype": "float32"}, {"name": "layers/functional/layers/batch_normalization_37/vars/0", "shape": [672], "dtype": "float32"}, {"name": "layers/functional/layers/batch_normalization_37/vars/1", "shape": [672], "dtype": "float32"}, {"name": "layers/functional/layers/batch_normalization_37/vars/2", "shape": [672], "dtype": "float32"}, {"name": "layers/functional/layers/batch_normalization_37/vars/3", "shape": [672], "dtype": "float32"}, {"name": "layers/functional/layers/batch_normalization_38/vars/0", "shape": [160], "dtype": "float32"}, {"name": "layers/functional/layers/batch_normalization_38/vars/1", "shape": [160], "dtype": "float32"}, {"name": "layers/functional/layers/batch_normalization_38/vars/2", "shape": [160], "dtype": "float32"}, {"name": "layers/functional/layers/batch_normalization_38/vars/3", "shape": [160], "dtype": "float32"}, {"name": "layers/functional/layers/batch_normalization_39/vars/0", "shape": [960], "dtype": "float32"}, {"name": "layers/functional/layers/batch_normalization_39/vars/1", "shape": [960], "dtype": "float32"}, {"name": "layers/functional/layers/batch_normalization_39/vars/2", "shape": [960], "dtype": "float32"}, {"name": "layers/functional/layers/batch_normalization_39/vars/3", "shape": [960], "dtype": "float32"}, {"name": "layers/functional/layers/batch_normalization_4/vars/0", "shape": [64], "dtype": "float32"}, {"name": "layers/functional/layers/batch_normalization_4/vars/1", "shape": [64], "dtype": "float32"}, {"name": "layers/functional/layers/batch_normalization_4/vars/2", "shape": [64], "dtype": "float32"}, {"name": "layers/functional/layers/batch_normalization_4/vars/3", "shape": [64], "dtype": "float32"}, {"name": "layers/functional/layers/batch_normalization_40/vars/0", "shape": [960], "dtype": "float32"}, {"name": "layers/functional/layers/batch_normalization_40/vars/1", "shape": [960], "dtype": "float32"}, {"name": "layers/functional/layers/batch_normalization_40/vars/2", "shape": [960], "dtype": "float32"}, {"name": "layers/functional/layers/batch_normalization_40/vars/3", "shape": [960], "dtype": "float32"}, {"name": "layers/functional/layers/batch_normalization_41/vars/0", "shape": [160], "dtype": "float32"}, {"name": "layers/functional/layers/batch_normalization_41/vars/1", "shape": [160], "dtype": "float32"}, {"name": "layers/functional/layers/batch_normalization_41/vars/2", "shape": [160], "dtype": "float32"}, {"name": "layers/functional/layers/batch_normalization_41/vars/3", "shape": [160], "dtype": "float32"}, {"name": "layers/functional/layers/batch_normalization_42/vars/0", "shape": [960], "dtype": "float32"}, {"name": "layers/functional/layers/batch_normalization_42/vars/1", "shape": [960], "dtype": "float32"}, {"name": "layers/functional/layers/batch_normalization_42/vars/2", "shape": [960], "dtype": "float32"}, {"name": "layers/functional/layers/batch_normalization_42/vars/3", "shape": [960], "dtype": "float32"}, {"name": "layers/functional/layers/batch_normalization_43/vars/0", "shape": [960], "dtype": "float32"}, {"name": "layers/functional/layers/batch_normalization_43/vars/1", "shape": [960], "dtype": "float32"}, {"name": "layers/functional/layers/batch_normalization_43/vars/2", "shape": [960], "dtype": "float32"}, {"name": "layers/functional/layers/batch_normalization_43/vars/3", "shape": [960], "dtype": "float32"}, {"name": "layers/functional/layers/batch_normalization_44/vars/0", "shape": [160], "dtype": "float32"}, {"name": "layers/functional/layers/batch_normalization_44/vars/1", "shape": [160], "dtype": "float32"}, {"name": "layers/functional/layers/batch_normalization_44/vars/2", "shape": [160], "dtype": "float32"}, {"name": "layers/functional/layers/batch_normalization_44/vars/3", "shape": [160], "dtype": "float32"}, {"name": "layers/functional/layers/batch_normalization_45/vars/0", "shape": [960], "dtype": "float32"}, {"name": "layers/functional/layers/batch_normalization_45/vars/1", "shape": [960], "dtype": "float32"}, {"name": "layers/functional/layers/batch_normalization_45/vars/2", "shape": [960], "dtype": "float32"}, {"name": "layers/functional/layers/batch_normalization_45/vars/3", "shape": [960], "dtype": "float32"}, {"name": "layers/functional/layers/batch_normalization_5/vars/0", "shape": [24], "dtype": "float32"}, {"name": "layers/functional/layers/batch_normalization_5/vars/1", "shape": [24], "dtype": "float32"}, {"name": "layers/functional/layers/batch_normalization_5/vars/2", "shape": [24], "dtype": "float32"}, {"name": "layers/functional/layers/batch_normalization_5/vars/3", "shape": [24], "dtype": "float32"}, {"name": "layers/functional/layers/batch_normalization_6/vars/0", "shape": [72], "dtype": "float32"}, {"name": "layers/functional/layers/batch_normalization_6/vars/1", "shape": [72], "dtype": "float32"}, {"name": "layers/functional/layers/batch_normalization_6/vars/2", "shape": [72], "dtype": "float32"}, {"name": "layers/functional/layers/batch_normalization_6/vars/3", "shape": [72], "dtype": "float32"}, {"name": "layers/functional/layers/batch_normalization_7/vars/0", "shape": [72], "dtype": "float32"}, {"name": "layers/functional/layers/batch_normalization_7/vars/1", "shape": [72], "dtype": "float32"}, {"name": "layers/functional/layers/batch_normalization_7/vars/2", "shape": [72], "dtype": "float32"}, {"name": "layers/functional/layers/batch_normalization_7/vars/3", "shape": [72], "dtype": "float32"}, {"name": "layers/functional/layers/batch_normalization_8/vars/0", "shape": [24], "dtype": "float32"}, {"name": "layers/functional/layers/batch_normalization_8/vars/1", "shape": [24], "dtype": "float32"}, {"name": "layers/functional/layers/batch_normalization_8/vars/2", "shape": [24], "dtype": "float32"}, {"name": "layers/functional/layers/batch_normalization_8/vars/3", "shape": [24], "dtype": "float32"}, {"name": "layers/functional/layers/batch_normalization_9/vars/0", "shape": [72], "dtype": "float32"}, {"name": "layers/functional/layers/batch_normalization_9/vars/1", "shape": [72], "dtype": "float32"}, {"name": "layers/functional/layers/batch_normalization_9/vars/2", "shape": [72], "dtype": "float32"}, {"name": "layers/functional/layers/batch_normalization_9/vars/3", "shape": [72], "dtype": "float32"}, {"name": "layers/functional/layers/conv2d/vars/0", "shape": [3, 3, 3, 16], "dtype": "float32"}, {"name": "layers/functional/layers/conv2d_1/vars/0", "shape": [1, 1, 16, 16], "dtype": "float32"}, {"name": "layers/functional/layers/conv2d_10/vars/0", "shape": [1, 1, 40, 120], "dtype": "float32"}, {"name": "layers/functional/layers/conv2d_11/vars/0", "shape": [1, 1, 120, 32], "dtype": "float32"}, {"name": "layers/functional/layers/conv2d_11/vars/1", "shape": [32], "dtype": "float32"}, {"name": "layers/functional/layers/conv2d_12/vars/0", "shape": [1, 1, 32, 120], "dtype": "float32"}, {"name": "layers/functional/layers/conv2d_12/vars/1", "shape": [120], "dtype": "float32"}, {"name": "layers/functional/layers/conv2d_13/vars/0", "shape": [1, 1, 120, 40], "dtype": "float32"}, {"name": "layers/functional/layers/conv2d_14/vars/0", "shape": [1, 1, 40, 120], "dtype": "float32"}, {"name": "layers/functional/layers/conv2d_15/vars/0", "shape": [1, 1, 120, 32], "dtype": "float32"}, {"name": "layers/functional/layers/conv2d_15/vars/1", "shape": [32], "dtype": "float32"}, {"name": "layers/functional/layers/conv2d_16/vars/0", "shape": [1, 1, 32, 120], "dtype": "float32"}, {"name": "layers/functional/layers/conv2d_16/vars/1", "shape": [120], "dtype": "float32"}, {"name": "layers/functional/layers/conv2d_17/vars/0", "shape": [1, 1, 120, 40], "dtype": "float32"}, {"name": "layers/functional/layers/conv2d_18/vars/0", "shape": [1, 1, 40, 240], "dtype": "float32"}, {"name": "layers/functional/layers/conv2d_19/vars/0", "shape": [1, 1, 240, 80], "dtype": "float32"}, {"name": "layers/functional/layers/conv2d_2/vars/0", "shape": [1, 1, 16, 64], "dtype": "float32"}, {"name": "layers/functional/layers/conv2d_20/vars/0", "shape": [1, 1, 80, 200], "dtype": "float32"}, {"name": "layers/functional/layers/conv2d_21/vars/0", "shape": [1, 1, 200, 80], "dtype": "float32"}, {"name": "layers/functional/layers/conv2d_22/vars/0", "shape": [1, 1, 80, 184], "dtype": "float32"}, {"name": "layers/functional/layers/conv2d_23/vars/0", "shape": [1, 1, 184, 80], "dtype": "float32"}, {"name": "layers/functional/layers/conv2d_24/vars/0", "shape": [1, 1, 80, 184], "dtype": "float32"}, {"name": "layers/functional/layers/conv2d_25/vars/0", "shape": [1, 1, 184, 80], "dtype": "float32"}, {"name": "layers/functional/layers/conv2d_26/vars/0", "shape": [1, 1, 80, 480], "dtype": "float32"}, {"name": "layers/functional/layers/conv2d_27/vars/0", "shape": [1, 1, 480, 120], "dtype": "float32"}, {"name": "layers/functional/layers/conv2d_27/vars/1", "shape": [120], "dtype": "float32"}, {"name": "layers/functional/layers/conv2d_28/vars/0", "shape": [1, 1, 120, 480], "dtype": "float32"}, {"name": "layers/functional/layers/conv2d_28/vars/1", "shape": [480], "dtype": "float32"}, {"name": "layers/functional/layers/conv2d_29/vars/0", "shape": [1, 1, 480, 112], "dtype": "float32"}, {"name": "layers/functional/layers/conv2d_3/vars/0", "shape": [1, 1, 64, 24], "dtype": "float32"}, {"name": "layers/functional/layers/conv2d_30/vars/0", "shape": [1, 1, 112, 672], "dtype": "float32"}, {"name": "layers/functional/layers/conv2d_31/vars/0", "shape": [1, 1, 672, 168], "dtype": "float32"}, {"name": "layers/functional/layers/conv2d_31/vars/1", "shape": [168], "dtype": "float32"}, {"name": "layers/functional/layers/conv2d_32/vars/0", "shape": [1, 1, 168, 672], "dtype": "float32"}, {"name": "layers/functional/layers/conv2d_32/vars/1", "shape": [672], "dtype": "float32"}, {"name": "layers/functional/layers/conv2d_33/vars/0", "shape": [1, 1, 672, 112], "dtype": "float32"}, {"name": "layers/functional/layers/conv2d_34/vars/0", "shape": [1, 1, 112, 672], "dtype": "float32"}, {"name": "layers/functional/layers/conv2d_35/vars/0", "shape": [1, 1, 672, 168], "dtype": "float32"}, {"name": "layers/functional/layers/conv2d_35/vars/1", "shape": [168], "dtype": "float32"}, {"name": "layers/functional/layers/conv2d_36/vars/0", "shape": [1, 1, 168, 672], "dtype": "float32"}, {"name": "layers/functional/layers/conv2d_36/vars/1", "shape": [672], "dtype": "float32"}, {"name": "layers/functional/layers/conv2d_37/vars/0", "shape": [1, 1, 672, 160], "dtype": "float32"}, {"name": "layers/functional/layers/conv2d_38/vars/0", "shape": [1, 1, 160, 960], "dtype": "float32"}, {"name": "layers/functional/layers/conv2d_39/vars/0", "shape": [1, 1, 960, 240], "dtype": "float32"}, {"name": "layers/functional/layers/conv2d_39/vars/1", "shape": [240], "dtype": "float32"}, {"name": "layers/functional/layers/conv2d_4/vars/0", "shape": [1, 1, 24, 72], "dtype": "float32"}, {"name": "layers/functional/layers/conv2d_40/vars/0", "shape": [1, 1, 240, 960], "dtype": "float32"}, {"name": "layers/functional/layers/conv2d_40/vars/1", "shape": [960], "dtype": "float32"}, {"name": "layers/functional/layers/conv2d_41/vars/0", "shape": [1, 1, 960, 160], "dtype": "float32"}, {"name": "layers/functional/layers/conv2d_42/vars/0", "shape": [1, 1, 160, 960], "dtype": "float32"}, {"name": "layers/functional/layers/conv2d_43/vars/0", "shape": [1, 1, 960, 240], "dtype": "float32"}, {"name": "layers/functional/layers/conv2d_43/vars/1", "shape": [240], "dtype": "float32"}, {"name": "layers/functional/layers/conv2d_44/vars/0", "shape": [1, 1, 240, 960], "dtype": "float32"}, {"name": "layers/functional/layers/conv2d_44/vars/1", "shape": [960], "dtype": "float32"}, {"name": "layers/functional/layers/conv2d_45/vars/0", "shape": [1, 1, 960, 160], "dtype": "float32"}, {"name": "layers/functional/layers/conv2d_46/vars/0", "shape": [1, 1, 160, 960], "dtype": "float32"}, {"name": "layers/functional/layers/conv2d_5/vars/0", "shape": [1, 1, 72, 24], "dtype": "float32"}, {"name": "layers/functional/layers/conv2d_6/vars/0", "shape": [1, 1, 24, 72], "dtype": "float32"}, {"name": "layers/functional/layers/conv2d_7/vars/0", "shape": [1, 1, 72, 24], "dtype": "float32"}, {"name": "layers/functional/layers/conv2d_7/vars/1", "shape": [24], "dtype": "float32"}, {"name": "layers/functional/layers/conv2d_8/vars/0", "shape": [1, 1, 24, 72], "dtype": "float32"}, {"name": "layers/functional/layers/conv2d_8/vars/1", "shape": [72], "dtype": "float32"}, {"name": "layers/functional/layers/conv2d_9/vars/0", "shape": [1, 1, 72, 40], "dtype": "float32"}, {"name": "layers/functional/layers/depthwise_conv2d/vars/0", "shape": [3, 3, 16, 1], "dtype": "float32"}, {"name": "layers/functional/layers/depthwise_conv2d_1/vars/0", "shape": [3, 3, 64, 1], "dtype": "float32"}, {"name": "layers/functional/layers/depthwise_conv2d_10/vars/0", "shape": [3, 3, 480, 1], "dtype": "float32"}, {"name": "layers/functional/layers/depthwise_conv2d_11/vars/0", "shape": [3, 3, 672, 1], "dtype": "float32"}, {"name": "layers/functional/layers/depthwise_conv2d_12/vars/0", "shape": [5, 5, 672, 1], "dtype": "float32"}, {"name": "layers/functional/layers/depthwise_conv2d_13/vars/0", "shape": [5, 5, 960, 1], "dtype": "float32"}, {"name": "layers/functional/layers/depthwise_conv2d_14/vars/0", "shape": [5, 5, 960, 1], "dtype": "float32"}, {"name": "layers/functional/layers/depthwise_conv2d_2/vars/0", "shape": [3, 3, 72, 1], "dtype": "float32"}, {"name": "layers/functional/layers/depthwise_conv2d_3/vars/0", "shape": [5, 5, 72, 1], "dtype": "float32"}, {"name": "layers/functional/layers/depthwise_conv2d_4/vars/0", "shape": [5, 5, 120, 1], "dtype": "float32"}, {"name": "layers/functional/layers/depthwise_conv2d_5/vars/0", "shape": [5, 5, 120, 1], "dtype": "float32"}, {"name": "layers/functional/layers/depthwise_conv2d_6/vars/0", "shape": [3, 3, 240, 1], "dtype": "float32"}, {"name": "layers/functional/layers/depthwise_conv2d_7/vars/0", "shape": [3, 3, 200, 1], "dtype": "float32"}, {"name": "layers/functional/layers/depthwise_conv2d_8/vars/0", "shape": [3, 3, 184, 1], "dtype": "float32"}, {"name": "layers/functional/layers/depthwise_conv2d_9/vars/0", "shape": [3, 3, 184, 1], "dtype": "float32"}, {"name": "optimizer/vars/0", "shape": [], "dtype": "int32"}, {"name": "optimizer/vars/1", "shape": [], "dtype": "float32"}, {"name": "optimizer/vars/10", "shape": [10], "dtype": "float32"}, {"name": "optimizer/vars/11", "shape": [10], "dtype": "float32"}, {"name": "optimizer/vars/2", "shape": [3, 3, 960, 512], "dtype": "float32"}, {"name": "optimizer/vars/3", "shape": [3, 3, 960, 512], "dtype": "float32"}, {"name": "optimizer/vars/4", "shape": [512], "dtype": "float32"}, {"name": "optimizer/vars/5", "shape": [512], "dtype": "float32"}, {"name": "optimizer/vars/6", "shape": [512], "dtype": "float32"}, {"name": "optimizer/vars/7", "shape": [512], "dtype": "float32"}, {"name": "optimizer/vars/8", "shape": [512, 10], "dtype": "float32"}, {"name": "optimizer/vars/9", "shape": [512, 10], "dtype": "float32"}]}]}